mltest/src/main/assets/conv1d_step0_100_512_16.tflite (tflite, 71456 bytes, 4 tensors)

sequential_12/re_lu_12/Relu;sequential_12/batch_normalization_12/batchnorm/add_1;sequential_12/conv1d_12/Conv1D/Squeeze;sequential_12/batch_normalization_12/batchnorm/mul_1;sequential_12/conv1d_12/BiasAdd;sequential_12/conv1d_12/BiasAdd/ReadVariableOp;sequential_12/batch_normalization_12/batchnorm/mul;sequential_12/batch_normalization_12/batchnorm/sub;sequential_12/conv1d_12/Conv1D f4 [512]
0	0xbfb4e29d	-1.4131657
1	0xbee28903	-0.44245157
2	0xbf61d90d	-0.8822182
3	0xbe4d991e	-0.20077941
4	0x3d9d356c	0.07676205
5	0xbf53add4	-0.82687116
6	0xbf7916ec	-0.973006
7	0xbeadf415	-0.33975282
8	0xbd2bac01	-0.041912083
9	0xbe80df54	-0.25170386
10	0xbf60423e	-0.8760108
11	0xbd17e7ab	-0.03708617
12	0xbf8e886d	-1.1135384
13	0xbde0bc1f	-0.10973381
14	0xbf020127	-0.5078301
15	0x3c998c8c	0.018743776
16	0xbea3e954	-0.32013953
17	0xbfa72bc5	-1.3060232
18	0xbf33067d	-0.69931775
19	0x3e89d785	0.2692224
20	0xbfd67998	-1.6755857
21	0xbd48c93e	-0.049020045
22	0xbf7e82e2	-0.9941846
23	0xbe9d304b	-0.30700907
24	0xbf0e31f7	-0.5554499
25	0xbeb95ce5	-0.36203685
26	0xbf80e5c1	-1.0070115
27	0xbf25c57b	-0.64754456
28	0x3ea871d4	0.32899344
29	0xbc831720	-0.016002238
30	0xbedc5cc5	-0.43039528
31	0xbfc70ba2	-1.5550425
32	0xbf95b4b6	-1.1695774
33	0xbd8d0d83	-0.06887343
34	0x3dbecc6a	0.09316333
35	0xbf8da86c	-1.1067023
36	0xbed921c3	-0.4240857
37	0xbf1c916a	-0.61159384
38	0x3f763821	0.96179396
39	0x3e6993e6	0.22810325
40	0xbf713789	-0.94225365
41	0xbf57758a	-0.84163725
42	0xbed09794	-0.40740645
43	0xbed78f9f	-0.42101762
44	0x3e7bde30	0.24596477
45	0xbecac809	-0.3960574
46	0x3eefccc8	0.46835923
47	0xbf010ae3	-0.50407237
48	0xbf9526b7	-1.165244
49	0xbd8232b9	-0.06357331
50	0xbec605cb	-0.38676295
51	0x3d0a5975	0.03377672
52	0xbedfe02e	-0.43725723
53	0x3e0a556e	0.13509151
54	0xbf9bea57	-1.218089
55	0x3d2a63f3	0.041599225
56	0x3cbe67c7	0.023242844
57	0xbfa3e071	-1.2802869
58	0xbd733847	-0.059379842
59	0xbf656e1e	-0.8962115
60	0xbde256f8	-0.11051744
61	0x3d21411a	0.039368726
62	0xbf778b33	-0.96696776
63	0xbe0b68ef	-0.13614248
64	0xbdcc2e5f	-0.09969782
65	0xbf554e3d	-0.8332251
66	0xbf966a5c	-1.1751208
67	0xbf00b87c	-0.502815
68	0xbfbccdcc	-1.4750304
69	0xbf4e4b5c	-0.8058374
70	0xbe04740c	-0.12934893
71	0xbf440bb7	-0.76580375
72	0xbfe90c37	-1.8206853
73	0x3e98b7dc	0.29827774
74	0xbee5a52c	-0.4485258
75	0xbd7f4356	-0.062320076
76	0xbf2245ea	-0.6338793
77	0xbf1a1e79	-0.6020275
78	0xbd0cbc74	-0.03435941
79	0xbf795a17	-0.9740309
80	0xbef3334e	-0.4750008
81	0x3f5e68e0	0.86878777
82	0x3f33dab4	0.7025559
83	0x3e823254	0.25429022
84	0x3c45de23	0.012076887
85	0x3f2837d9	0.65710217
86	0xbf1f179b	-0.62145394
87	0xbf0f0952	-0.55873597
88	0xbf3c1526	-0.7346977
89	0xbfe187b8	-1.7619543
90	0x3e51aa90	0.2047522
91	0xbe7d2c8a	-0.24724022
92	0xbe54765c	-0.20748276
93	0xbe246b52	-0.16056564
94	0xbf68fcc3	-0.91010684
95	0x3f5df642	0.86703885
96	0x3e3e4a78	0.18583095
97	0xbee88a35	-0.45417944
98	0x3ebdb7f7	0.37054417
99	0xbfa1e5e7	-1.2648286
100	0xbf69db30	-0.9135008
101	0xbf84892c	-1.0354362
102	0x3f4f12bb	0.80887955
103	0xbfa8226c	-1.3135505
104	0xbefd397b	-0.49457917
105	0xbd50d922	-0.050988324
106	0xbe8075d9	-0.2508991
107	0xbe8d5508	-0.27603936
108	0xbcd7463e	-0.026278611
109	0x3dce08dc	0.100602835
110	0xbfd16135	-1.635779
111	0xbd8ea1e3	-0.06964471
112	0xbfae556d	-1.361982
113	0xbc8e6881	-0.017383816
114	0xbd513f9a	-0.051086046
115	0xbee7047b	-0.45120606
116	0x3ed327ed	0.41241398
117	0xbf37b55f	-0.71761125
118	0xbf14749b	-0.57990426
119	0xbb1a67be	-0.002356037
120	0xbf62980c	-0.88513255
121	0xbef6e197	-0.48218986
122	0x3f0c3eb4	0.5478318
123	0xbee6b367	-0.45058748
124	0xbf36b686	-0.7137226
125	0xbebbe47b	-0.36697754
126	0xbee8b731	-0.45452264
127	0xbeb85ff9	-0.3601072
128	0xbf90abfa	-1.1302483
129	0xbe9408d3	-0.28912982
130	0xbdae789f	-0.085191004
131	0xbf79e9c7	-0.9762234
132	0xbeaa9e99	-0.33324125
133	0xbfa4899f	-1.2854499
134	0x3eb0cc9b	0.34531102
135	0xbce3ff89	-0.02783181
136	0x3ea85db0	0.32883978
137	0xbe1fec27	-0.15617429
138	0xbe2f1b48	-0.1710025
139	0xbf1e147d	-0.6175001
140	0x3e296abe	0.16544625
141	0xbeba02df	-0.36330315
142	0xbf38bd46	-0.7216381
143	0xbe09765e	-0.1342406
144	0xbdb5c125	-0.0887473
145	0xbe9c2674	-0.30498087
146	0xbe222eee	-0.15838215
147	0xbf9294a7	-1.1451615
148	0xbf9f5e17	-1.2450589
149	0xbed3e182	-0.41382986
150	0xbda19799	-0.07890243
151	0xbf70b5bb	-0.940273
152	0xbea6192e	-0.32441086
153	0x3f4c8bdf	0.79900926
154	0xbf96a7b5	-1.176993
155	0xbddb7af5	-0.107168116
156	0xbe7dd408	-0.24787915
157	0xbe4d8d3a	-0.20073405
158	0xbef06564	-0.46952355
159	0xbfe99496	-1.824847
160	0xbf50c013	-0.8154308
161	0x3e6446ab	0.22292583
162	0xbeaabd1e	-0.3334741
163	0xbf7b2389	-0.981011
164	0x3ded3cc7	0.11583858
165	0xbe524193	-0.20532827
166	0x3f10268c	0.5630882
167	0xbf612158	-0.87941504
168	0x3f0acd78	0.5421977
169	0x3e8d79ed	0.27632084
170	0xc00b0294	-2.1720324
171	0xbea518cc	-0.3224548
172	0xbf94897a	-1.1604455
173	0xbf078d7b	-0.5295026
174	0xbe67d251	-0.22638823
175	0xbdc49e6b	-0.09600528
176	0x3cecaf01	0.028892042
177	0x3eed4f85	0.4634973
178	0xbe9447fd	-0.28961173
179	0xbf0b1bee	-0.5433949
180	0xbf8e69c5	-1.1126028
181	0x3ff37985	1.902146
182	0x3ed3dfe6	0.41381758
183	0xbdc497fe	-0.09599303
184	0xbea15fbf	-0.3151836
185	0x3e98ef75	0.2987019
186	0xbecfb913	-0.40570888
187	0xbf1282e6	-0.57230985
188	0xbf6c3ce9	-0.9228044
189	0xbe4e4208	-0.20142376
190	0xbe556d12	-0.20842388
191	0x3e38e73e	0.18056962
192	0xbe259ddd	-0.16173501
193	0xbc1096b5	-0.008824994
194	0xbf377812	-0.7166759
195	0xbd0c7e10	-0.03429991
196	0xbf8b5621	-1.088566
197	0x3e3b12c4	0.18268877
198	0xbf83868d	-1.0275437
199	0xbfca03c4	-1.5782399
200	0xbf944bbf	-1.1585616
201	0xbea5c309	-0.32375363
202	0xbfe28b6d	-1.7698799
203	0x3e4e7a70	0.20163894
204	0xbfa7afe1	-1.3100549
205	0xbecaeac7	-0.39632246
206	0xbeaa949c	-0.33316505
207	0xb9920477	-0.00027850617
208	0xbfeec438	-1.8653631
209	0xbfa9a593	-1.3253654
210	0xbf5fd69a	-0.8743683
211	0x3e57f47d	0.21089359
212	0xbf6a67da	-0.91564715
213	0xbf38f17f	-0.72243494
214	0xbf3ab83c	-0.7293737
215	0x3d126c75	0.035747964
216	0xbfd262d4	-1.643641
217	0xbd2577f2	-0.040397592
218	0xbf4f02a6	-0.80863416
219	0x3f0af3ad	0.5427807
220	0x3e4d37aa	0.20040765
221	0x3fd1c35c	1.6387744
222	0xbeffa1d9	-0.49928167
223	0xbf44fc83	-0.769478
224	0xbefe673d	-0.4968814
225	0xbda588e5	-0.08082751
226	0xbe170ecb	-0.14751737
227	0x3f24508f	0.6418542
228	0xbc9de61b	-0.019274762
229	0xbccb106b	-0.024788102
230	0xbebb3fce	-0.36572117
231	0xbf3133a1	-0.69219404
232	0x3c8e935e	0.017404255
233	0x3e49c618	0.19704473
234	0xbee4b441	-0.44668773
235	0xbebc2930	-0.36750174
236	0xbe2bfc1f	-0.16795395
237	0xbef0d2af	-0.4703574
238	0x3f081a5d	0.5316523
239	0xbd55ebae	-0.052226715
240	0xbe0a5a1e	-0.1351094
241	0xbf402c04	-0.7506716
242	0xbf32547c	-0.6966016
243	0xbe7e18a2	-0.24814084
244	0xbf71acea	-0.9440447
245	0xbd68c4e0	-0.05682838
246	0xbedce142	-0.43140608
247	0xbf805cdd	-1.002834
248	0x3d0871a5	0.033311505
249	0xbd008b2d	-0.03138273
250	0xbca132c8	-0.019677535
251	0x3eb54661	0.35405257
252	0x3e806763	0.25078878
253	0xbf348e9d	-0.7053011
254	0x3f25c3db	0.64751977
255	0x3e4a5f39	0.19762887

sequential_12/batch_normalization_12/batchnorm/mul_1;sequential_12/conv1d_12/Conv1D/Squeeze;sequential_12/conv1d_12/BiasAdd;sequential_12/conv1d_12/BiasAdd/ReadVariableOp;sequential_12/batch_normalization_12/batchnorm/mul;sequential_12/conv1d_12/Conv1D f4 [512, 1, 5, 6]
0	0x3c005363	0.007832381
1	0x3cdf1561	0.027231874
2	0x3c759cbf	0.014990984
3	0xbc25d66b	-0.010121922
4	0xbabf786e	-0.0014608034
5	0xbaa1eff1	-0.0012354833
6	0x3b9d7414	0.0048050974
7	0x3ca8a164	0.02058477
8	0x3ca6f5ce	0.02038088
9	0x3a1b356f	0.0005920743
10	0xb9677078	-0.00022071775
11	0xbabbae92	-0.0014318994
12	0x3bc745d8	0.006081324
13	0x3c69c7d8	0.014268838
14	0x3c857aae	0.01629385
15	0x3ad33bf1	0.0016115886
16	0x3a1039d2	0.000550178
17	0x3ad50f23	0.0016255121
18	0x3bce96dd	0.0063046054
19	0x3c6e1391	0.014531032
20	0x3c10e349	0.0088432515
21	0x3b800f50	0.0039080754
22	0x3a5f7149	0.00085236557
23	0x3abb40d1	0.0014286285
24	0x3c33d22a	0.0109754
25	0x3c7324f4	0.014840353
26	0x3b39418a	0.0028267824
27	0x3ba8829e	0.005142524
28	0x3b300fbf	0.0026864854
29	0x3b2a5a4f	0.002599377
30	0x3bbdffa2	0.005798296
31	0x3b174cce	0.002308655
32	0x3b931b54	0.0044893418
33	0x3a8381db	0.0010033207
34	0x39656391	0.00021876233
35	0x3ab6ea1b	0.0013955267
36	0x3b674f55	0.0035295088
37	0x3a80752f	0.0009800548
38	0x3b892b5c	0.004186077
39	0x3b475fab	0.0030422013
40	0xb9b6b1b4	-0.00034846144
41	0xb9c999c5	-0.00038452275
42	0xba278150	-0.00063898135
43	0xb9bfbe9e	-0.0003657238
44	0x3baefc3b	0.005340127
45	0x3b107b89	0.002204629
46	0xba7a6878	-0.000955231
47	0xbaeb100b	-0.0017933858
48	0xbb383922	-0.0028110226
49	0xbb09e1e4	-0.0021039182
50	0x3b9b35b9	0.004736629
51	0x3ae3ea38	0.0017388528
52	0xbbaef82a	-0.005339642
53	0xbb259b8e	-0.002526972
54	0x386f99e9	5.712538e-05
55	0xbb953ead	-0.0045545907
56	0x3b6c7918	0.003608292
57	0x3b8a2819	0.004216206
58	0xbb6f9be5	-0.0036561426
59	0xbaa185d8	-0.0012323214
60	0xbc349bf4	-0.01102351
61	0xb900880e	-0.00012257716
62	0x3c7a3407	0.015271193
63	0xbb99cc81	-0.004693568
64	0x3b9e4033	0.0048294305
65	0x3b8bd72f	0.0042675952
66	0xbc7b98de	-0.015356271
67	0x3bb7382c	0.005591413
68	0x3bf22369	0.007389475
69	0xba62be97	-0.0008649616
70	0xba1c4b52	-0.00059621513
71	0x3b32f864	0.0027308697
72	0xbca2245b	-0.019792726
73	0x3c26422b	0.010147612
74	0x3bfca868	0.0077105053
75	0xbb8a8e36	-0.0042283786
76	0xbb8636a6	-0.00409587
77	0x39325389	0.00017006522
78	0xbc5b1f07	-0.013374097
79	0x397de3c0	0.00024212804
80	0x3c5df4cf	0.013547136
81	0x3bb2d8e1	0.005457983
82	0xbb042d2c	-0.0020168526
83	0xbb5394ad	-0.0032284663
84	0xbb4c021f	-0.0031129194
85	0xbb8e058d	-0.004334158
86	0x3c8f701a	0.017509509
87	0x3c228736	0.009919932
88	0xb9705fb7	-0.0002292384
89	0xbb5502c0	-0.003250286
90	0x3a240091	0.0006256188
91	0x3c80c293	0.01571778
92	0x3c3ccf95	0.011524101
93	0xbc87bf90	-0.016570836
94	0xbbc7a537	-0.006092693
95	0x3aabc35d	0.0013104487
96	0x3bd952f5	0.0066322037
97	0x3b930981	0.004487217
98	0xb98c9653	-0.0002681488
99	0xbc1224e2	-0.008919926
100	0xbb2d9875	-0.0026488577
101	0x3b5501e7	0.0032502355
102	0xbc1dfec9	-0.009643265
103	0xb9d7a0d3	-0.0004112782
104	0xbc3a2ad7	-0.011362753
105	0xb9c8fc25	-0.00038334835
106	0x3b3f25e9	0.0029166883
107	0x3b8624ac	0.004093727
108	0xbc8f76b6	-0.01751266
109	0xb9160869	-0.00014308248
110	0xbc8d0c6a	-0.017217834
111	0x3c104384	0.0088051595
112	0x3b8955da	0.0041911425
113	0x3c214e8b	0.009845386
114	0xbb21b8d3	-0.0024676814
115	0x3b4c22ab	0.0031148593
116	0xbc3739b8	-0.011183195
117	0x3c9a6668	0.01884766
118	0x393db90c	0.0001809338
119	0x3acb7425	0.0015522285
120	0xba920b97	-0.001114237
121	0x3bc4f7ad	0.0060109706
122	0xba049091	-0.00050569425
123	0xbc718700	-0.014741659
124	0x3b28b606	0.002574326
125	0x3af01054	0.0018315413
126	0xbb694c24	-0.0035598362
127	0x3bad86d7	0.005295615
128	0x3b21d719	0.0024694859
129	0x3af53428	0.001870756
130	0xbacbf4a7	-0.0015560583
131	0x3904ba37	0.00012657871
132	0xbbfd60e7	-0.007732499
133	0x3b00a71a	0.001963085
134	0x3b2ac3e0	0.0026056692
135	0x3be8e735	0.00710764
136	0xbb1d715b	-0.0024023864
137	0x3a01f9df	0.0004958193
138	0xbc020020	-0.0079346
139	0xbb2c6458	-0.0026304927
140	0x3b24f9b0	0.002517324
141	0xbc098f60	-0.008396
142	0xb99956ce	-0.0002924711
143	0x3ac62f33	0.0015120268
144	0xbbf4d4b8	-0.007471647
145	0xbb47cc28	-0.0030486677
146	0x3bc799a8	0.0060913153
147	0xbc4e9d0d	-0.012610686
148	0x3b8ad5fe	0.0042369356
149	0x3b53262b	0.0032218795
150	0xbb81bf84	-0.003959598
151	0x3bdafe68	0.0066831596
152	0x3a3f1527	0.0007289224
153	0x3c388d60	0.011264175
154	0xb8521452	-5.0086826e-05
155	0x3b8d721c	0.0043165814
156	0xbc4944ca	-0.012284467
157	0x3c3f86e3	0.011689874
158	0x3c22c83a	0.009935433
159	0x39c84ab4	0.0003820263
160	0xba4764d6	-0.0007606273
161	0x3aef39ba	0.0018251457
162	0xbc94a811	-0.018146547
163	0x3bd80c33	0.006593251
164	0x3c4fbf9e	0.012679962
165	0x39c6e4e0	0.00037936028
166	0xbb16d3e2	-0.0023014476
167	0xbb1ee6da	-0.0024246485
168	0xbcb55758	-0.022136375
169	0xba1ff632	-0.00061020546
170	0x3c6b0e26	0.014346635
171	0xbb28f279	-0.002577929
172	0xba4858d4	-0.0007642631
173	0xb9cf6694	-0.00039558543
174	0xbcb7facd	-0.022458458
175	0xbc23694c	-0.009973835
176	0x3c875d8f	0.016524104
177	0xbad88979	-0.0016520462
178	0xbb1d0bfc	-0.0023963442
179	0x3b4838a0	0.003055133
180	0xbb9521be	-0.0045511415
181	0x3bce461c	0.006294979
182	0x3bec38c4	0.0072089154
183	0xbb33d445	-0.0027439755
184	0x3ab9121b	0.0014119776
185	0xb98c83f8	-0.00026801205
186	0xba8e76ce	-0.0010869147
187	0x3bcba02a	0.0062141614
188	0x3bd885f6	0.0066077663
189	0xbb0461f1	-0.002019998
190	0x3a7d9ef1	0.0009674868
191	0xba021979	-0.0004962902
192	0x3aee6d1e	0.0018190478
193	0x3be28d80	0.006913841
194	0x3bba48cd	0.005684948
195	0xbb8fb1f6	-0.0043852283
196	0x3a0d9d56	0.0005402168
197	0xba18f2fe	-0.00058345485
198	0x3b99e766	0.0046967743
199	0x3c0c9e87	0.008582718
200	0x3bd47a8c	0.0064843353
201	0xbbc34280	-0.005958855
202	0xb80f65af	-3.4188557e-05
203	0xb9b73bab	-0.00034948936
204	0x3b8352ef	0.004007689
205	0x3bf046d5	0.0073326626
206	0x3beebf5c	0.0072859954
207	0xbbf54df6	-0.0074861003
208	0xbad7509c	-0.0016427222
209	0xba73acb5	-0.00092954497
210	0xba2bf77c	-0.00065600104
211	0x3be6f034	0.0070476774
212	0x3b297d35	0.0025861983
213	0x3bf50294	0.007477114
214	0xbb83c963	-0.00402181
215	0xba081b55	-0.0005192061
216	0xbac0bdad	-0.0014704965
217	0x3c035e7c	0.008018132
218	0x3bae8ac6	0.0053266017
219	0x3b47ef99	0.0030507802
220	0xbb5fb933	-0.0034137487
221	0xbafa5c6b	-0.0019101029
222	0xbb8113f9	-0.0039391485
223	0x3b94e3a1	0.004543737
224	0x3b61cbea	0.0034453818
225	0xb92b3780	-0.00016328506
226	0xbac2ac95	-0.0014852459
227	0xb994bcb3	-0.00028369352
228	0xbb8f9f6f	-0.0043830196
229	0xba36814b	-0.0006962015
230	0x3a0baa74	0.00053278287
231	0x3b2e0ce6	0.002655798
232	0x3a00bb32	0.0004910707
233	0x3b86f402	0.0041184435
234	0xbbc12273	-0.0058939992
235	0xbb50e064	-0.0031872028
236	0xbae1c7a2	-0.0017225633
237	0x3aba2705	0.0014202303
238	0x38296575	4.038723e-05
239	0x3bad83b9	0.0052952436
240	0xbb80b08f	-0.0039272974
241	0x3b85a5a9	0.004078586
242	0x39923871	0.00027889342
243	0x3a86127e	0.00102289
244	0x3adecd76	0.0016998488
245	0xbbbb05ed	-0.0057074935
246	0xbb71423c	-0.003681316
247	0x3b8acc25	0.0042357617
248	0x3a268299	0.0006351858
249	0x3aab5939	0.0013072855
250	0x39aca1f4	0.0003292706
251	0xbb8f1e06	-0.0043675927
252	0xbb6e1c34	-0.0036332728
253	0x3b84febd	0.0040586875
254	0x3a0f1b94	0.00054591266
255	0x3a8bb89e	0.0010659879

sequential_12/dense_12/BiasAdd/ReadVariableOp f4 [2]
0	0x3e20ec2e	0.15715095
1	0xbe20ec3d	-0.15715118

sequential_12/dense_12/MatMul f4 [2, 512]
0	0xbf91eb05	-1.1399847
1	0xbe16f556	-0.14742026
2	0x3fa95441	1.3228837
3	0xbea0e852	-0.31427246
4	0x3e342e9a	0.17595902
5	0xbf2e7a40	-0.6815529
6	0xbf106132	-0.5639831
7	0xbddfdacc	-0.10930404
8	0x3e0ea5b7	0.13930403
9	0xbe808e82	-0.25108725
10	0x3ec70af4	0.38875544
11	0x3e3d411a	0.18481866
12	0x3e2f6621	0.17128803
13	0xbe470e99	-0.19439162
14	0xbed67db3	-0.41892776
15	0xbe4d2648	-0.20034134
16	0xbe3a42b2	-0.18189505
17	0x3fe1bd0a	1.7635815
18	0x3feb7f9c	1.8398318
19	0xbe6063d4	-0.21913081
20	0xbf5936a1	-0.8484898
21	0xbe386143	-0.18005852
22	0x3f97e991	1.1868154
23	0x3e64a450	0.22328305
24	0xbf0d352f	-0.55159277
25	0xbe6bd853	-0.2303174
26	0xbe98b7ab	-0.29827628
27	0xbecfbfb1	-0.40575936
28	0xbede9a0d	-0.43476906
29	0xbe2dbd7c	-0.16966814
30	0x3e828446	0.25491542
31	0x3e371b03	0.17881398
32	0xbe6504e3	-0.22365145
33	0xbdfa1395	-0.12210766
34	0x3e469086	0.19391069
35	0xbeb984c5	-0.36234108
36	0x3e6e7af7	0.23289095
37	0xbf915856	-1.1355083
38	0x3e0b0a98	0.1357826
39	0x3e5156b2	0.20443228
40	0xbebda1d1	-0.3703752
41	0x3efc35a6	0.4925968
42	0xbe85d747	-0.26140806
43	0x3eb8fee3	0.36131963
44	0xbdc0fa85	-0.09422783
45	0x3e19d2cb	0.15021817
46	0x3e001d92	0.1251128
47	0xbe7c1e56	-0.24620947
48	0xbf40a148	-0.75246096
49	0x3e84e3cd	0.25955048
50	0x3ec1dd2c	0.37864053
51	0x3d5286af	0.051397976
52	0x3ea02f31	0.31286004
53	0x3e078ac1	0.13236524
54	0xbe9e2d34	-0.30893862
55	0xbe337f9c	-0.17529148
56	0xbe1aa7f3	-0.1510313
57	0xbf24e110	-0.6440592
58	0xbe3be2f1	-0.1834829
59	0x3e7f9cd0	0.24962163
60	0x3e09daed	0.1346242
61	0x3e346dc8	0.17620003
62	0xbea4a54b	-0.3215736
63	0x3f36e27a	0.71439326
64	0x3e07a47a	0.13246337
65	0x401a612d	2.4121811
66	0xbf6698b7	-0.90076774
67	0xbea03beb	-0.31295714
68	0x3e898ebf	0.2686672
69	0xbf036763	-0.5132963
70	0x3d8c546b	0.06852039
71	0xbf308b27	-0.6896233
72	0x3f9b973c	1.2155528
73	0x3e987ccd	0.29782715
74	0xbe08e4dc	-0.13368553
75	0xbe07cb68	-0.13261187
76	0x3eb97846	0.36224574
77	0x3f2f71c3	0.6853296
78	0xbe1e7738	-0.15475166
79	0xbebaa614	-0.36454833
80	0x3f53a6b5	0.8267625
81	0x3e44d2b0	0.19220996
82	0xbe2da77e	-0.16958424
83	0x3f1d1721	0.61363417
84	0xbe575361	-0.210279
85	0x3e4046b8	0.18776977
86	0xbf073b72	-0.5282508
87	0x3d33c284	0.043886676
88	0x3eaae062	0.33374316
89	0x3f3e1a34	0.7425873
90	0x3e2e045b	0.16993849
91	0x3e09d4ae	0.13460037
92	0x3e059070	0.1304338
93	0x3fc81903	1.5632633
94	0xbec034cb	-0.37540278
95	0x3ea2efda	0.31823617
96	0x3d26f08e	0.040756755
97	0xbe4c08c0	-0.19925213
98	0xbe7ec924	-0.24881417
99	0x3f9971cf	1.1987857
100	0xbf43f4fe	-0.76545703
101	0xbe165d73	-0.14684086
102	0xbec76dc5	-0.38950935
103	0x3fb530f0	1.415556
104	0xbe2b4718	-0.16726339
105	0x3de0b4f9	0.10972018
106	0x3e280102	0.16406634
107	0x3e3c5852	0.18393067
108	0xbe9cb917	-0.30609962
109	0x3de6f441	0.112770565
110	0x3e91b2e9	0.2845681
111	0x3d326e35	0.043562133
112	0xbee6a2a1	-0.4504595
113	0x3e051307	0.1299554
114	0xbe51b30e	-0.2047846
115	0xbe983f31	-0.2973571
116	0x3ea6dc3d	0.32589903
117	0xbea7e348	-0.3279059
118	0x3f93c9dd	1.1545979
119	0xbe61841d	-0.22023053
120	0x3f866732	1.0500243
121	0x3e92a12a	0.28638583
122	0x3e214080	0.15747261
123	0xbe3764b1	-0.17909504
124	0x3f255499	0.6458221
125	0x3e2dd76c	0.16976708
126	0x3e9eb78e	0.30999416
127	0x3e43e8f9	0.19131841
128	0xbfa74652	-1.3068335
129	0xbd99066c	-0.07471928
130	0x3d65ab0b	0.056071322
131	0x3e8b697e	0.27228922
132	0x3e4ff259	0.20307292
133	0xbf4d209a	-0.8012787
134	0x3dfad8e1	0.122483976
135	0xbe1c4837	-0.15261923
136	0xbcfdae77	-0.03096698
137	0xbe1b2548	-0.1515094
138	0x3e0c4a17	0.13700138
139	0x3ea2247f	0.3166847
140	0x3e0db26a	0.13837591
141	0x3eac5421	0.33657935
142	0x3ea2e104	0.31812298
143	0x3e5ae41c	0.2137608
144	0xbe85d032	-0.26135403
145	0xbdf1d38f	-0.1180793
146	0x3daa9068	0.083283246
147	0x3f6e5f01	0.93113714
148	0x4032fef2	2.7968106
149	0x3ea7cacc	0.3277191
150	0xbe905511	-0.281899
151	0x3ebc2438	0.36746383
152	0xbde56d09	-0.112024374
153	0xbe953537	-0.29142162
154	0x3e8d6595	0.27616563
155	0xbe617f1e	-0.22021148
156	0xbe415be4	-0.1888271
157	0xbe2cf423	-0.16890006
158	0x3e4e45f0	0.20143867
159	0x3edbb555	0.42911783
160	0x3eafd2e4	0.34340584
161	0xbe87a644	-0.26494038
162	0x3d929b7b	0.07158562
163	0x3e2fd290	0.17170167
164	0x3e0e8005	0.13916023
165	0xbd3ba80a	-0.04581455
166	0x3e5a22d9	0.21302356
167	0xbfa2d525	-1.2721297
168	0xbe97fd20	-0.29685307
169	0x3e925419	0.28579786
170	0xbf93f126	-1.1557968
171	0xbf61e2f6	-0.8823694
172	0xbfc27bac	-1.5193992
173	0x3f89df1c	1.0771213
174	0x3e819555	0.25309244
175	0xbeaedf3e	-0.34154695
176	0x3d94ed9a	0.072718814
177	0xbea46586	-0.32108706
178	0x3e8bc0cc	0.2729553
179	0x3ea297c0	0.317564
180	0xbf3b3d27	-0.73140186
181	0x3e3ceead	0.18450423
182	0x3ec88fda	0.3917225
183	0x3e0b1b3f	0.13584612
184	0xbe0151e5	-0.12628897
185	0x3df397e6	0.11894207
186	0xbeefc8d2	-0.468329
187	0x3ea0522c	0.31312692
188	0xbf7f6f09	-0.997788
189	0xbe4e1b0b	-0.20127504
190	0xbddb57f5	-0.10710136
191	0xbedb92a0	-0.42885303
192	0x3deb86c8	0.11500317
193	0xbeaf7435	-0.34268346
194	0x3e8d26f4	0.2756878
195	0xbe184bb2	-0.14872625
196	0xbf066eca	-0.525128
197	0x3dbae00d	0.091247655
198	0xbe0171c8	-0.1264106
199	0x401c7c58	2.4450893
200	0x3f728198	0.94728994
201	0xbe24fc3e	-0.16111848
202	0x3f966d35	1.1752077
203	0x3e1e8b8e	0.15482923
204	0x3fa875c6	1.3160942
205	0xbdc26dcf	-0.094936006
206	0xbd21e345	-0.03952338
207	0x3e844ac9	0.25838307
208	0x3f93f4e2	1.1559107
209	0xbf5e78a7	-0.8690285
210	0x3f7d8009	0.9902349
211	0x3e38bc7f	0.18040656
212	0xbeec78d3	-0.46185932
213	0x3f922414	1.141726
214	0x3db72398	0.08942336
215	0x3e37320a	0.17890182
216	0xbf818426	-1.0118454
217	0x3e863317	0.26210853
218	0xbf6b0ad2	-0.91813385
219	0xbde11be1	-0.109916456
220	0x3edd9546	0.4327795
221	0x3f7adf7a	0.9799725
222	0xbe58ad10	-0.21159768
223	0xbf7ae1f7	-0.98001045
224	0xbe98c728	-0.29839444
225	0x3d20eca4	0.039288178
226	0x3d969571	0.073527224
227	0x3f164e7a	0.58713496
228	0xbe2e7abe	-0.1703901
229	0xbe825140	-0.25452614
230	0xbed0374a	-0.40667182
231	0x3f25d408	0.6477666
232	0xbde2e265	-0.110783376
233	0x3e163f37	0.14672552
234	0xbea7ba95	-0.32759538
235	0xbea093b6	-0.31362695
236	0xbdb5ccf8	-0.08876985
237	0xbd351b1d	-0.04421531
238	0x3e8da7ac	0.27666986
239	0xbe57571d	-0.21029325
240	0x3e16dd79	0.14732923
241	0xbe8b4da9	-0.27207687
242	0xbe8ad40b	-0.271149
243	0x3e756d2e	0.2396743
244	0xbf1cf7d2	-0.61315644
245	0x3e8a39d3	0.2699724
246	0x3e2a6280	0.16639137
247	0x3e60d8cb	0.219577
248	0xbe45d441	-0.1931925
249	0xbe9a6de4	-0.30161965
250	0xbe283caa	-0.16429392
251	0xbe7e3d09	-0.2482797
252	0x3e82a37c	0.25515354
253	0x3e318cfa	0.17338935
254	0xbe232547	-0.15932189
255	0xbe2c2fbb	-0.16815083
