mltest/src/main/assets/lstm_step0_100_128_16.tflite (tflite, 289096 bytes, 6 tensors)

sequential_3/lstm_3/Read_2/ReadVariableOp f4 [512]
000000 61 ef 98 3c 2f 90 be 3e 61 b0 86 3d b2 4f 3e be
       0.018668832 0.37219378 0.0657661 -0.18585089
000010 01 81 8a be 92 20 db 3d e6 b3 ad 3e ff 48 39 be
       -0.27051547 0.10699572 0.33926314 -0.18094252
000020 0e c5 81 3e df 0e d4 3e d1 ef 69 3e 09 8b 22 bd
       0.25345653 0.41417596 0.22845389 -0.039683376
000030 79 d4 a4 3d 81 c2 8c 3e f5 90 30 bd c0 bb a8 3b
       0.080483384 0.27492145 -0.04310699 0.0051493347
000040 8a 4a b5 3e 68 f4 b0 3e d2 b5 59 be 78 a9 95 3e
       0.3540843 0.34561467 -0.21260765 0.29230857
000050 08 a8 6b 3e ac 98 ca bc 67 b0 6c bd 64 f0 21 3e
       0.23013318 -0.024731003 -0.057785418 0.15814358
000060 bd 56 c0 bd b3 4f 92 bd 7a b4 68 3d b4 17 1a 3e
       -0.09391544 -0.07144108 0.05681274 0.15048105
000070 e9 45 27 3e 1e 61 2d 3f 1a 0f 1d 3e 0f bd 87 3e
       0.16335262 0.67726314 0.15337792 0.26511428
000080 8e 21 04 3f 9c cc 3e 3e 47 0e 07 3e fc 14 66 3e
       0.516137 0.1863274 0.1318904 0.22468942
000090 7c c2 a6 3d 8d 5b 0c bd 62 e8 86 3e 6f be 9e 3e
       0.08142564 -0.034266997 0.2634917 0.31004664
0000a0 5f 30 f8 bd ba d6 f0 3c 65 54 1b 3e 54 66 15 3e
       -0.12118601 0.029399265 0.15168913 0.14589816
0000b0 2c 3b 2f bb 07 34 02 3f c1 cb 90 3c a2 8a 89 3d
       -0.002673815 0.5086064 0.017675282 0.06715895
0000c0 78 31 be be 44 47 1f bd 93 c3 97 bb ef 36 f9 3d
       -0.37147117 -0.038886324 -0.0046314686 0.12168681
0000d0 e7 0b 11 3e ba 3d 2f 3e ec 6f 5e 3e d3 b0 f7 3d
       0.14164697 0.1711339 0.21722382 0.120942734
0000e0 d2 9c f0 3e 64 af 10 3e 94 e7 96 3d 6f 51 9e 3c
       0.46994644 0.14129406 0.07368389 0.01932594
0000f0 70 49 4f 3d 60 50 88 be 32 83 26 3e 73 00 20 3d
       0.050607145 -0.2662382 0.16260985 0.03906293
000100 13 d4 a9 3d 85 78 90 3a f9 d7 99 bd cf 8a 0d be
       0.08292403 0.0011022246 -0.07511897 -0.13822483
000110 39 c6 39 3e 0a 43 be bd 2e 78 b7 be ce d7 9a 3e
       0.18142022 -0.092901304 -0.35833877 0.3024277
000120 b4 e6 6b 3e 1c 85 f3 3e 06 1a 4c be 83 9c 98 3d
       0.23037225 0.47562492 -0.19931802 0.07451727
000130 f2 b8 58 be 25 53 a5 3c 4e 72 ea bc cd 3f a0 be
       -0.21164301 0.020181248 -0.028618958 -0.31298676
000140 36 6d 9d be 31 95 22 3e 24 84 73 3d 63 23 98 be
       -0.30747384 0.15877225 0.05945219 -0.29714498
000150 27 01 2a 3d c1 8a a5 3c 08 b2 fa 3e cc 42 a8 3e
       0.041505005 0.020207765 0.48963952 0.32863462
000160 49 c3 c1 3e 45 c2 b9 3e 42 1d 85 be 61 f6 b4 3c
       0.37844303 0.36281028 -0.25998884 0.022090139
000170 59 0e 64 be c1 ac 97 3e 01 15 3b be 21 e5 2f 3b
       -0.22271098 0.29623988 -0.18269731 0.0026839452
000180 43 20 42 3e d5 96 35 3e 22 60 05 3d f4 85 c8 be
       0.1895762 0.17733319 0.032562383 -0.39164698
000190 97 f1 7e 3e c5 ca 8e bd 2e 91 2a 3e 89 f8 10 be
       0.24896847 -0.06972269 0.16656944 -0.14157309
0001a0 1d 16 ef be b8 27 f9 3d 17 d5 9a 3e d1 8b 9c ba
       -0.4669656 0.12165779 0.302407 -0.0011943524
0001b0 92 64 0e 3e b8 5e 7b be df 57 38 be 2d a7 86 3d
       0.13905552 -0.24547851 -0.1800227 0.06574855
0001c0 1d 93 f6 3e 9c d5 ac 3e 13 34 9b be cc 09 11 3e
       0.48159114 0.3375672 -0.30313167 0.14163893
0001d0 cf 6b 7a be e1 14 dc bd ee 77 23 be 6b ce 22 be
       -0.24455188 -0.1074617 -0.15963718 -0.15899055
0001e0 9f 1c 54 3c 8d 6f 7f be 40 87 a7 3e 46 47 13 3e
       0.012946277 -0.24944897 0.32720375 0.14382657
0001f0 ea 88 08 3f 34 ac 86 bd 68 e7 e0 3c e9 d1 d0 3e
       0.53333914 -0.06575814 0.027454093 0.4078515
000200 68 9e 4c 3f 0e db 89 3f 82 98 8b 3f 62 fb 98 3f
       0.7992921 1.0769975 1.0905917 1.1951716
000210 2c 7f a1 3f b6 50 49 3f cf e2 b2 3f 03 c0 9d 3f
       1.2616935 0.7863878 1.3975466 1.2324222
000220 c2 cb 8b 3f fe 1d 50 3f 10 0b 8d 3f 1a 75 84 3f
       1.0921557 0.81295764 1.1019001 1.0348237
000230 d3 dd 7d 3f 21 75 92 3f 2c 84 7e 3f 7d 94 84 3f
       0.991666 1.1441995 0.9942043 1.0357815
000240 14 06 8b 3f c7 1d a6 3f 6b 42 fb 3f f9 1d 92 3f
       1.086123 1.2977837 1.9629644 1.1415397
000250 0f 23 94 3f 59 8b 9d 3f b0 b6 96 3f 94 dc ab 3f
       1.1573199 1.230815 1.1774502 1.342669
000260 71 a3 34 3f 77 ae 62 3f 10 b7 ae 3f f3 1f 91 3f
       0.7056189 0.8854746 1.3649616 1.1337875
000270 f6 ee 64 3f 9f 90 0b 40 81 16 8f 3f c3 89 8f 3f
       0.89427125 2.180702 1.1178743 1.1213917
000280 86 74 74 3f 10 3c 72 3f 27 81 9d 3f 55 81 da 3f
       0.954903 0.946229 1.2305039 1.7070719
000290 cc d3 7f 3f 43 58 87 3f 6d b2 92 3f 36 ee be 3f
       0.9993255 1.057381 1.1460701 1.4916446
0002a0 06 ea ac 3f 7e 57 64 3f 33 32 7c 3f e9 7d 3d 3f
       1.3508918 0.89196 0.985141 0.7402025
0002b0 3a 30 8d 3f 85 3f ad 3f d6 c3 8f 3f 10 53 78 3f
       1.1030343 1.353501 1.1231639 0.97001743
0002c0 af b0 a3 3f 41 06 93 3f be 5d c8 3f 7d ea 8e 3f
       1.2788295 1.1486284 1.5653608 1.116531
0002d0 a7 e7 8d 3f 16 08 58 3f 44 0d 89 3f 5e e3 82 3f
       1.108632 0.8438734 1.0707173 1.0225637
0002e0 2d 50 71 3f d1 32 96 3f 32 f0 81 3f 0d 27 86 3f
       0.94262964 1.1734258 1.0151427 1.0480667
0002f0 96 70 83 3f 6c 8c 57 3f aa 58 74 3f 92 27 7a 3f
       1.0268734 0.8419864 0.9544779 0.9771663
000300 82 3c 91 3f a3 1e c9 3f f4 72 7e 3f 70 39 9d 3f
       1.134659 1.5712475 0.99394155 1.2283154
000310 0c be 99 3f 2d c4 48 3f 31 e1 aa 3f 78 ee 93 3f
       1.2011123 0.7842434 1.3349973 1.155715
000320 24 b8 8f 3f 75 88 9d 3f 38 fd b7 3f 45 95 66 3f
       1.122807 1.2307268 1.4374151 0.9007152
000330 14 09 a2 3f 4a 9e 86 3f b8 90 5f 3f 2c 54 84 3f
       1.265902 1.0517056 0.873302 1.0338187
000340 81 37 70 3f 27 1f 8c 3f 4a cf 55 3f 5b 82 8d 3f
       0.9383469 1.0947007 0.83519423 1.1055406
000350 f9 80 8b 3f 09 e8 b1 3f 20 66 d6 3f 5e 5e 96 3f
       1.0898734 1.3898937 1.6749916 1.1747549
000360 0f 75 7d 3f ce 76 c4 3f 0a 25 88 3f da 5a a6 3f
       0.9900674 1.5348756 1.0636303 1.2996476
000370 be 6d 74 3f 09 e4 90 3f c6 ae a6 3f e7 fe ae 3f
       0.95479953 1.1319591 1.3022087 1.367154
000380 27 cb bb 3f 45 54 b1 3f 16 b1 54 3f 9e 3f ab 3f
       1.4671372 1.3853842 0.8308271 1.337879
000390 39 bc a7 3f 63 9c 97 3f 6e 92 8b 3f b0 db 48 3f
       1.3104316 1.18446 1.0904062 0.78460217
0003a0 06 5c 8c 3f 17 89 7f 3f 4a 4b 9d 3f 78 cc 9b 3f
       1.0965583 0.9981856 1.2288601 1.2171774
0003b0 11 f0 a5 3f 5f c9 88 3f 87 79 94 3f d0 ab 80 3f
       1.2963887 1.0686454 1.1599587 1.0052433
0003c0 6e 62 86 3f 7a 2a df 3f 90 3a c4 3f ef 31 93 3f
       1.0498788 1.7434838 1.5330372 1.1499614
0003d0 65 e2 7c 3f bf 21 ae 3f 69 6f 81 3f 07 71 78 3f
       0.9878295 1.3604048 1.0112125 0.97047466
0003e0 fe 34 9e 3f c6 f0 ce 3f e5 c5 ed 3f 7b 3c 8c 3f
       1.2359922 1.6167228 1.8576018 1.0955957
0003f0 74 91 8c 3f 97 5d 7b 3f c9 da c8 3f b0 49 83 3f
       1.0981889 0.9818968 1.5691768 1.0256863

sequential_3/dense_3/BiasAdd/ReadVariableOp f4 [2]
000000 cf af ac 3e 2c b0 ac be
       0.3372788 -0.33728158

sequential_3/dense_3/MatMul f4 [2, 128]
000000 e4 dc 04 bf 00 94 8d 3d f9 8c d8 3d aa 5f 31 be
       -0.5189955 0.069129944 0.105737634 -0.17321649
000010 b3 8b f4 bd 4e 9f 2b bf 5e 12 8a be 04 a5 c3 3c
       -0.11940708 -0.67039955 -0.26967138 0.023882397
000020 c5 a4 f8 3e 3a f7 c8 bb 3f 14 8f 3e af 6d 84 be
       0.4856321 -0.0061329873 0.27945134 -0.25864932
000030 01 32 db 3e e3 09 a6 3c 14 1b e1 be 51 2d d3 3d
       0.42811587 0.020268386 -0.4396597 0.10311378
000040 70 d4 94 be dd 53 21 be 59 ee bb be 18 1b e6 3d
       -0.29068327 -0.15754648 -0.36705282 0.112356365
000050 b4 33 bc be 12 ab e4 3d 79 6d 28 3f 66 89 02 3f
       -0.36758196 0.111654416 0.6579204 0.50990903
000060 d6 e8 19 bf b5 4b 2c 3f 88 fb f3 be 52 75 8d 3e
       -0.60120904 0.6730302 -0.4765284 0.2762857
000070 30 69 7c be 75 a0 cc be b1 9e fc 3c 59 8e 10 3e
       -0.24649501 -0.3996617 0.030837389 0.14116801
000080 79 36 b0 be f5 0d 53 3e cf 37 1e 3e ec 6b b2 3e
       -0.3441656 0.20610793 0.15450977 0.34847963
000090 be 24 9a bd 10 79 14 3f 81 89 11 3d 8b 98 46 3d
       -0.07526539 0.57997227 0.035531525 0.04848532
0000a0 5c 10 a9 bd 8b c8 25 3e 7a ed cb 3e 7e 1e 9d 3e
       -0.082550734 0.16189782 0.39829618 0.30687326
0000b0 96 eb 80 3e 49 76 48 3e a0 56 06 3e ee 4b 09 3e
       0.25179738 0.19576372 0.13118982 0.13407871
0000c0 d0 6d 19 3e e5 02 70 3e 6c 21 fb be f9 6a b1 be
       0.14983296 0.23438604 -0.49048936 -0.34651926
0000d0 77 b4 bf be 46 3d fc 3e 5c ca b6 3e c6 ca bc 3e
       -0.3744237 0.49265498 0.35701263 0.36873454
0000e0 93 22 48 bf fb cf c0 3e 1f 7e 8b be 28 e7 bf 3c
       -0.78177756 0.37658677 -0.2724466 0.023425654
0000f0 13 3b 97 bb 4b c2 66 3e 81 fe 58 3e 55 02 bd be
       -0.0046151965 0.22535054 0.21190836 -0.36915842
000100 cf 1c b9 be 6a 94 af bd 4a 46 1a 3e 60 64 99 be
       -0.36154792 -0.085732296 0.15065876 -0.29959393
000110 68 cf 8a be 85 dc ba be 59 13 24 b9 1b 16 33 3f
       -0.27111363 -0.36496368 -0.00015647466 0.69955605
000120 4c 65 1a bf 19 c0 c5 3d 7e 05 6d be 56 be ff 3e
       -0.60310817 0.0965578 -0.23146626 0.49949902
000130 6b 29 af 3c fa cb 2e bf 77 56 9e be e4 71 da 3e
       0.021382054 -0.68279994 -0.30925342 0.42665017
000140 c3 5a 19 3e 55 a4 22 3f d8 3f 25 3e 3e 8e 18 be
       0.14976029 0.63532 0.16137636 -0.14898011
000150 d0 31 0f bd a7 a5 4c be 68 6e d5 bd 12 a4 98 bd
       -0.034959614 -0.19985066 -0.10421449 -0.07453169
000160 cb 11 d9 be dd aa 2f be f1 e3 f5 3e 7b ee 57 be
       -0.42396387 -0.17155023 0.48025468 -0.21087067
000170 fc ae 4c 3d 15 28 18 bf e7 e5 ab bd e4 f5 e0 3d
       0.049971566 -0.5943616 -0.0839346 0.109844
000180 eb 19 ae bd c6 c1 bb 3e c0 0d d2 be 1b 54 41 bb
       -0.08501037 0.36671275 -0.41026115 -0.0029499594
000190 e3 ab d2 3e 40 65 1f 3d 2a 95 05 3f 0c 43 4f be
       0.41146764 0.03891492 0.5218073 -0.2024042
0001a0 ec e9 1e 3f 9d 4d 6b 3e 3c 6b 98 3d bb 92 e7 3d
       0.62075686 0.22978826 0.07442328 0.113072835
0001b0 7f 1c 08 be e6 62 c6 bf 54 82 8d be 2f 6f 8d 3f
       -0.1329212 -1.5498931 -0.27638495 1.1049556
0001c0 be de 94 3d c0 d3 d3 3d 83 a1 8c bd c9 f3 cb 3e
       0.07269047 0.103431225 -0.068667434 0.3983443
0001d0 c3 0c 4e bd ca 4d 45 bd 63 f0 c5 bd e2 56 45 3e
       -0.05030514 -0.04816989 -0.09664991 0.19271424
0001e0 b2 8b 31 be f2 75 a8 3e f8 c2 a4 be d8 b8 1b bf
       -0.17338446 0.32902485 -0.3218 -0.60828924
0001f0 8d ff 95 bd d0 c5 1b bd 82 12 a7 3e 9f 51 23 bf
       -0.07324133 -0.038030446 0.32631308 -0.6379642
000200 5b 98 e7 3e 12 95 96 be c5 7c 89 3d d1 c8 ae 3d
       0.45233425 -0.29410607 0.06713251 0.085343964
000210 7f 7c c0 bd b4 0d f7 3e f6 72 e3 3d 37 5b ac be
       -0.09398746 0.48252642 0.111059114 -0.3366334
000220 2c 33 3e bf 83 63 9c 3e 85 c3 94 be 96 24 13 3f
       -0.7429683 0.3054467 -0.2905542 0.574777
000230 b3 c4 10 bf f9 c4 89 be ef c1 23 3f 00 5f f7 3c
       -0.5655014 -0.2690809 0.63967794 0.030196667
000240 8d bc 66 3e d7 8d 80 3e 65 98 bf 3b da 70 ba 3d
       0.22532864 0.25108215 0.0058470243 0.09103556
000250 44 ae 06 3e 0a 62 c2 be 83 c6 0a bf 61 1d d3 be
       0.13152415 -0.37965423 -0.54209155 -0.41233352
000260 3b 99 2d 3f a2 47 36 bf 2e 5a 97 3e 56 63 8c be
       0.67811936 -0.71203053 0.2956099 -0.27419537
000270 42 a6 f7 3d 6d 80 10 3e aa 9e 5a 3d 36 95 a7 bd
       0.12092258 0.1411149 0.05337397 -0.081827566
000280 ad 3f 9d 3e ab ba b5 be e5 34 77 be 61 c9 c0 be
       0.30712643 -0.3549398 -0.24141271 -0.3765364
000290 fc c1 86 3d 07 9e 17 bf 3e 74 a8 bd 55 76 b6 3e
       0.06579968 -0.59225506 -0.082252964 0.35637155
0002a0 ee 66 c0 3d b4 a0 0a 3c b0 46 25 bf cc 8b b8 be
       0.09394632 0.008461166 -0.64560986 -0.36044157
0002b0 ee ff cf be e8 3e be be 34 5b 0a be 9b 7a f9 3c
       -0.40624946 -0.3715737 -0.13511354 0.03045397
0002c0 35 f9 81 3e 28 f7 43 be 0a 3e 5c 3e 61 f0 21 3f
       0.25385442 -0.19137251 0.21508041 0.63257414
0002d0 fc 49 6b 3e 04 25 dc be ce bf fd be d6 f9 79 be
       0.22977442 -0.4299699 -0.49560398 -0.24411711
0002e0 61 60 62 3f 88 34 81 be 5e af d6 ba 34 38 8b 3b
       0.8842831 -0.2523539 -0.0016379168 0.0042486433
0002f0 bf 81 ab bd d6 96 a3 be 7d c5 66 bd e9 9a f6 3e
       -0.083743565 -0.31951016 -0.056340683 0.48165062
000300 12 5d 3a 3e a4 b3 af 3b cb 86 ce be b0 47 ec 3c
       0.18199566 0.005361991 -0.40337214 0.028842777
000310 05 61 0d 3e e7 3b e2 3e 40 a7 be 3e 6d d1 4d bf
       0.13806541 0.44186327 0.37236977 -0.80397683
000320 e1 1e cf 3e 09 fc 78 be 1f 3d 91 3e 55 17 47 be
       0.40453246 -0.24314894 0.28366944 -0.19442494
000330 e3 fd d1 3d d7 68 19 3f 27 71 32 3f 2c 75 3b bf
       0.10253503 0.599256 0.69703907 -0.73225665
000340 65 70 56 3e e1 06 cb be f0 96 94 bd f3 42 34 3e
       0.20941313 -0.39653686 -0.072553515 0.17603664
000350 e5 44 9f bb ee 5e ae 3d 07 77 9f bd 22 43 51 3e
       -0.004860508 0.085142 -0.077863745 0.20435765
000360 6e 4f 0c 3f 39 f9 d1 3d b4 48 d0 be 23 f7 34 3e
       0.548087 0.102526136 -0.40680468 0.176724
000370 69 3d 8d 3e 0a 92 20 3f 7a d1 0b bd 0c cd 63 bd
       0.27585915 0.6272284 -0.03413532 -0.05561547
000380 b4 95 6e be 12 60 b3 bd 56 6c 13 3f 77 6d 86 be
       -0.23299295 -0.08758558 0.5758718 -0.2625539
000390 3a ef f8 be 99 86 d6 bd 07 0b 2d bf b8 72 a5 3e
       -0.48620015 -0.10474891 -0.6759495 0.32314086
0003a0 47 f2 44 bf 6c b9 2e 3c 15 57 58 3e e4 10 a8 bd
       -0.76932186 0.010664325 0.21126969 -0.08206347
0003b0 f1 39 b0 3d 9e ab aa 3f 1c 4f a6 3c d9 df 9c bf
       0.086048014 1.3333623 0.020301394 -1.2255813
0003c0 36 7e 5c 3e 1f 06 91 be 28 ec 39 3e 4f c2 08 bf
       0.2153252 -0.28324983 0.18156493 -0.5342149
0003d0 f3 75 f5 3d e4 e9 e5 bd db ec b4 bd ba 21 96 3d
       0.11985388 -0.11226252 -0.08834239 0.073306516
0003e0 e0 a7 70 3e b3 b9 88 be 17 14 64 3d 09 cc 23 3f
       0.23501539 -0.26704177 0.05568322 0.6398321
0003f0 b6 02 0f 3d 23 b3 7c 3e fc a9 e4 be c9 b1 1a 3f
       0.034914695 0.2467771 -0.44660938 0.6042753

sequential_3/lstm_3/Read_2/ReadVariableOp1 f4 [512]
000000 61 ef 98 3c 2f 90 be 3e 61 b0 86 3d b2 4f 3e be
       0.018668832 0.37219378 0.0657661 -0.18585089
000010 01 81 8a be 92 20 db 3d e6 b3 ad 3e ff 48 39 be
       -0.27051547 0.10699572 0.33926314 -0.18094252
000020 0e c5 81 3e df 0e d4 3e d1 ef 69 3e 09 8b 22 bd
       0.25345653 0.41417596 0.22845389 -0.039683376
000030 79 d4 a4 3d 81 c2 8c 3e f5 90 30 bd c0 bb a8 3b
       0.080483384 0.27492145 -0.04310699 0.0051493347
000040 8a 4a b5 3e 68 f4 b0 3e d2 b5 59 be 78 a9 95 3e
       0.3540843 0.34561467 -0.21260765 0.29230857
000050 08 a8 6b 3e ac 98 ca bc 67 b0 6c bd 64 f0 21 3e
       0.23013318 -0.024731003 -0.057785418 0.15814358
000060 bd 56 c0 bd b3 4f 92 bd 7a b4 68 3d b4 17 1a 3e
       -0.09391544 -0.07144108 0.05681274 0.15048105
000070 e9 45 27 3e 1e 61 2d 3f 1a 0f 1d 3e 0f bd 87 3e
       0.16335262 0.67726314 0.15337792 0.26511428
000080 8e 21 04 3f 9c cc 3e 3e 47 0e 07 3e fc 14 66 3e
       0.516137 0.1863274 0.1318904 0.22468942
000090 7c c2 a6 3d 8d 5b 0c bd 62 e8 86 3e 6f be 9e 3e
       0.08142564 -0.034266997 0.2634917 0.31004664
0000a0 5f 30 f8 bd ba d6 f0 3c 65 54 1b 3e 54 66 15 3e
       -0.12118601 0.029399265 0.15168913 0.14589816
0000b0 2c 3b 2f bb 07 34 02 3f c1 cb 90 3c a2 8a 89 3d
       -0.002673815 0.5086064 0.017675282 0.06715895
0000c0 78 31 be be 44 47 1f bd 93 c3 97 bb ef 36 f9 3d
       -0.37147117 -0.038886324 -0.0046314686 0.12168681
0000d0 e7 0b 11 3e ba 3d 2f 3e ec 6f 5e 3e d3 b0 f7 3d
       0.14164697 0.1711339 0.21722382 0.120942734
0000e0 d2 9c f0 3e 64 af 10 3e 94 e7 96 3d 6f 51 9e 3c
       0.46994644 0.14129406 0.07368389 0.01932594
0000f0 70 49 4f 3d 60 50 88 be 32 83 26 3e 73 00 20 3d
       0.050607145 -0.2662382 0.16260985 0.03906293
000100 13 d4 a9 3d 85 78 90 3a f9 d7 99 bd cf 8a 0d be
       0.08292403 0.0011022246 -0.07511897 -0.13822483
000110 39 c6 39 3e 0a 43 be bd 2e 78 b7 be ce d7 9a 3e
       0.18142022 -0.092901304 -0.35833877 0.3024277
000120 b4 e6 6b 3e 1c 85 f3 3e 06 1a 4c be 83 9c 98 3d
       0.23037225 0.47562492 -0.19931802 0.07451727
000130 f2 b8 58 be 25 53 a5 3c 4e 72 ea bc cd 3f a0 be
       -0.21164301 0.020181248 -0.028618958 -0.31298676
000140 36 6d 9d be 31 95 22 3e 24 84 73 3d 63 23 98 be
       -0.30747384 0.15877225 0.05945219 -0.29714498
000150 27 01 2a 3d c1 8a a5 3c 08 b2 fa 3e cc 42 a8 3e
       0.041505005 0.020207765 0.48963952 0.32863462
000160 49 c3 c1 3e 45 c2 b9 3e 42 1d 85 be 61 f6 b4 3c
       0.37844303 0.36281028 -0.25998884 0.022090139
000170 59 0e 64 be c1 ac 97 3e 01 15 3b be 21 e5 2f 3b
       -0.22271098 0.29623988 -0.18269731 0.0026839452
000180 43 20 42 3e d5 96 35 3e 22 60 05 3d f4 85 c8 be
       0.1895762 0.17733319 0.032562383 -0.39164698
000190 97 f1 7e 3e c5 ca 8e bd 2e 91 2a 3e 89 f8 10 be
       0.24896847 -0.06972269 0.16656944 -0.14157309
0001a0 1d 16 ef be b8 27 f9 3d 17 d5 9a 3e d1 8b 9c ba
       -0.4669656 0.12165779 0.302407 -0.0011943524
0001b0 92 64 0e 3e b8 5e 7b be df 57 38 be 2d a7 86 3d
       0.13905552 -0.24547851 -0.1800227 0.06574855
0001c0 1d 93 f6 3e 9c d5 ac 3e 13 34 9b be cc 09 11 3e
       0.48159114 0.3375672 -0.30313167 0.14163893
0001d0 cf 6b 7a be e1 14 dc bd ee 77 23 be 6b ce 22 be
       -0.24455188 -0.1074617 -0.15963718 -0.15899055
0001e0 9f 1c 54 3c 8d 6f 7f be 40 87 a7 3e 46 47 13 3e
       0.012946277 -0.24944897 0.32720375 0.14382657
0001f0 ea 88 08 3f 34 ac 86 bd 68 e7 e0 3c e9 d1 d0 3e
       0.53333914 -0.06575814 0.027454093 0.4078515
000200 68 9e 4c 3f 0e db 89 3f 82 98 8b 3f 62 fb 98 3f
       0.7992921 1.0769975 1.0905917 1.1951716
000210 2c 7f a1 3f b6 50 49 3f cf e2 b2 3f 03 c0 9d 3f
       1.2616935 0.7863878 1.3975466 1.2324222
000220 c2 cb 8b 3f fe 1d 50 3f 10 0b 8d 3f 1a 75 84 3f
       1.0921557 0.81295764 1.1019001 1.0348237
000230 d3 dd 7d 3f 21 75 92 3f 2c 84 7e 3f 7d 94 84 3f
       0.991666 1.1441995 0.9942043 1.0357815
000240 14 06 8b 3f c7 1d a6 3f 6b 42 fb 3f f9 1d 92 3f
       1.086123 1.2977837 1.9629644 1.1415397
000250 0f 23 94 3f 59 8b 9d 3f b0 b6 96 3f 94 dc ab 3f
       1.1573199 1.230815 1.1774502 1.342669
000260 71 a3 34 3f 77 ae 62 3f 10 b7 ae 3f f3 1f 91 3f
       0.7056189 0.8854746 1.3649616 1.1337875
000270 f6 ee 64 3f 9f 90 0b 40 81 16 8f 3f c3 89 8f 3f
       0.89427125 2.180702 1.1178743 1.1213917
000280 86 74 74 3f 10 3c 72 3f 27 81 9d 3f 55 81 da 3f
       0.954903 0.946229 1.2305039 1.7070719
000290 cc d3 7f 3f 43 58 87 3f 6d b2 92 3f 36 ee be 3f
       0.9993255 1.057381 1.1460701 1.4916446
0002a0 06 ea ac 3f 7e 57 64 3f 33 32 7c 3f e9 7d 3d 3f
       1.3508918 0.89196 0.985141 0.7402025
0002b0 3a 30 8d 3f 85 3f ad 3f d6 c3 8f 3f 10 53 78 3f
       1.1030343 1.353501 1.1231639 0.97001743
0002c0 af b0 a3 3f 41 06 93 3f be 5d c8 3f 7d ea 8e 3f
       1.2788295 1.1486284 1.5653608 1.116531
0002d0 a7 e7 8d 3f 16 08 58 3f 44 0d 89 3f 5e e3 82 3f
       1.108632 0.8438734 1.0707173 1.0225637
0002e0 2d 50 71 3f d1 32 96 3f 32 f0 81 3f 0d 27 86 3f
       0.94262964 1.1734258 1.0151427 1.0480667
0002f0 96 70 83 3f 6c 8c 57 3f aa 58 74 3f 92 27 7a 3f
       1.0268734 0.8419864 0.9544779 0.9771663
000300 82 3c 91 3f a3 1e c9 3f f4 72 7e 3f 70 39 9d 3f
       1.134659 1.5712475 0.99394155 1.2283154
000310 0c be 99 3f 2d c4 48 3f 31 e1 aa 3f 78 ee 93 3f
       1.2011123 0.7842434 1.3349973 1.155715
000320 24 b8 8f 3f 75 88 9d 3f 38 fd b7 3f 45 95 66 3f
       1.122807 1.2307268 1.4374151 0.9007152
000330 14 09 a2 3f 4a 9e 86 3f b8 90 5f 3f 2c 54 84 3f
       1.265902 1.0517056 0.873302 1.0338187
000340 81 37 70 3f 27 1f 8c 3f 4a cf 55 3f 5b 82 8d 3f
       0.9383469 1.0947007 0.83519423 1.1055406
000350 f9 80 8b 3f 09 e8 b1 3f 20 66 d6 3f 5e 5e 96 3f
       1.0898734 1.3898937 1.6749916 1.1747549
000360 0f 75 7d 3f ce 76 c4 3f 0a 25 88 3f da 5a a6 3f
       0.9900674 1.5348756 1.0636303 1.2996476
000370 be 6d 74 3f 09 e4 90 3f c6 ae a6 3f e7 fe ae 3f
       0.95479953 1.1319591 1.3022087 1.367154
000380 27 cb bb 3f 45 54 b1 3f 16 b1 54 3f 9e 3f ab 3f
       1.4671372 1.3853842 0.8308271 1.337879
000390 39 bc a7 3f 63 9c 97 3f 6e 92 8b 3f b0 db 48 3f
       1.3104316 1.18446 1.0904062 0.78460217
0003a0 06 5c 8c 3f 17 89 7f 3f 4a 4b 9d 3f 78 cc 9b 3f
       1.0965583 0.9981856 1.2288601 1.2171774
0003b0 11 f0 a5 3f 5f c9 88 3f 87 79 94 3f d0 ab 80 3f
       1.2963887 1.0686454 1.1599587 1.0052433
0003c0 6e 62 86 3f 7a 2a df 3f 90 3a c4 3f ef 31 93 3f
       1.0498788 1.7434838 1.5330372 1.1499614
0003d0 65 e2 7c 3f bf 21 ae 3f 69 6f 81 3f 07 71 78 3f
       0.9878295 1.3604048 1.0112125 0.97047466
0003e0 fe 34 9e 3f c6 f0 ce 3f e5 c5 ed 3f 7b 3c 8c 3f
       1.2359922 1.6167228 1.8576018 1.0955957
0003f0 74 91 8c 3f 97 5d 7b 3f c9 da c8 3f b0 49 83 3f
       1.0981889 0.9818968 1.5691768 1.0256863

while/MatMul_1 f4 [512, 128]
000000 1a 89 d0 be d8 56 b7 be ac ad 6e bf 59 1f 47 bd
       -0.407296 -0.35808444 -0.9323375 -0.04861388
000010 31 7a cf bd 50 87 8a 3e 77 d1 54 bf f4 55 b7 3d
       -0.10130728 0.2705636 -0.8313212 0.08951941
000020 09 d9 3a 3f 13 c2 21 bf e0 b6 0e bf 48 83 28 bf
       0.7298742 -0.6318676 -0.55747795 -0.6582532
000030 e0 c5 22 3f 4f 4c 81 3f e7 07 29 3f 03 c4 7e bd
       0.63583183 1.0101413 0.66027683 -0.06219865
000040 92 45 0f 3f 4f e7 b8 3c d7 02 33 3e b0 c7 1e 3e
       0.5596553 0.022571234 0.17481552 0.15505862
000050 e8 26 21 be a2 d2 0a bf 5b 4d db be 24 fb e8 bd
       -0.15737498 -0.5422765 -0.42832455 -0.11376026
000060 7f 4e cb be d8 67 6f bd bc 4d 63 be 66 77 40 be
       -0.39708325 -0.058448642 -0.22197622 -0.18795547
000070 db 90 fc 3e 44 43 20 bf 77 20 39 3d ef 56 22 3f
       0.49329266 -0.6260264 0.045196977 0.634139
000080 38 61 1e bf bb 1e c4 be 52 93 52 3f d5 5b b8 3e
       -0.61867094 -0.38304695 0.8225604 0.36007562
000090 cb 55 11 3f 83 aa f4 3f c7 aa df be 83 f3 4e bf
       0.56771535 1.9114536 -0.4368498 -0.8084032
0000a0 d8 c6 27 bf d8 d5 2c be 73 51 28 be 77 0f f5 3e
       -0.65537786 -0.1687845 -0.1643732 0.4786336
0000b0 03 22 50 bd 81 3f 02 3f 7c 78 2b 3f d7 fc 02 be
       -0.050813686 0.5087815 0.6698072 -0.12791763
0000c0 a9 6e 76 3e 1f bc 98 3e 60 12 de 3c ef 42 9d be
       0.24065651 0.29831025 0.027108371 -0.3071513
0000d0 40 d9 0e 3e 4b 38 23 3f 27 8a 51 3e 6b ed ff 3e
       0.13950062 0.6375777 0.20462857 0.49985823
0000e0 23 10 f6 be bd af 6f 3f a0 de a4 be 84 30 a5 bd
       -0.48059186 0.9362753 -0.322011 -0.08065894
0000f0 e3 63 29 3e 56 77 23 bf 33 10 ba 3e 3d 56 38 be
       0.1654201 -0.6385397 0.36340484 -0.18001647
000100 9a f6 85 be 43 48 ad be e7 51 a8 3e 7f 2c 0c bf
       -0.26164705 -0.33844194 0.32874987 -0.54755396
000110 53 12 3b 3d 7c c5 20 3d 6c e8 c3 bd 97 c0 52 be
       0.045671772 0.039250836 -0.09565815 -0.2058128
000120 9c 45 fb 3e d8 4d 1d 3f 5f 0d 4c be ac 53 9b 3e
       0.49076545 0.61446905 -0.19926976 0.30337274
000130 17 5a 3a be aa 81 26 bf b1 71 98 3d 1b d4 85 3e
       -0.18198429 -0.650416 0.0744356 0.26138386
000140 7d f8 3b be d0 59 51 be 12 b8 86 3e 30 79 a3 3e
       -0.1835651 -0.20444417 0.2631231 0.31928396
000150 7d 18 14 3e 95 cb 75 be a2 46 e4 be 7a c6 0d be
       0.14462467 -0.24003442 -0.4458514 -0.13845244
000160 1c 05 d0 be 96 36 59 bf d6 d2 05 bf d8 0f e7 be
       -0.40628898 -0.84848917 -0.52274835 -0.45129275
000170 e9 d2 3b 3e b1 b8 21 3f d2 ba 2e 3c c4 fa d2 3e
       0.18342175 0.6317244 0.010664659 0.41206944
000180 08 c7 06 3f 42 4e 55 3d c9 1f ea be 6d 9f 46 bd
       0.5264745 0.052076586 -0.45727375 -0.048491884
000190 2d 00 8c 3d 7a b1 68 bd 48 8d a8 3e 6c 90 97 3d
       0.06835971 -0.05680988 0.3292029 0.07400593
0001a0 95 5b 83 bd d7 7b 8d be 6d 08 87 be 8e b0 36 3e
       -0.06413952 -0.27633545 -0.26373616 0.17840788
0001b0 7c f2 2f be cb a3 cd be 6e fd 02 bd d8 c6 80 3f
       -0.17182344 -0.40164027 -0.03197997 1.0060682
0001c0 9d a9 74 3e 05 0e 65 bd 8b 4c f1 be e2 72 3a 3f
       0.23892827 -0.055921573 -0.4712871 0.7283155
0001d0 e1 8c 94 3d a7 18 83 bf 4b 30 11 3f 6f 76 bf be
       0.07253433 -1.0241898 0.56714314 -0.37395045
0001e0 1b 4e 7d 3e a5 43 f8 3e 45 11 c5 bd 30 41 80 3e
       0.24736826 0.4848911 -0.096224345 0.25049734
0001f0 68 9d df 3e f8 02 25 3f a0 2e 34 bf ee ec 8c be
       0.4367478 0.64457655 -0.70383644 -0.27524513
000200 8d 93 19 3f e8 e3 0d bd cf bf bf 3d d8 a6 08 be
       0.5999077 -0.034641176 0.093627565 -0.13344896
000210 25 67 44 3f 36 c5 14 bf f8 79 be be 28 89 05 be
       0.76719886 -0.5811342 -0.3720243 -0.13040602
000220 d5 ec ef 3d ce d5 10 bf ba 6d 04 3f e6 3d cf bd
       0.11715094 -0.5657624 0.5172993 -0.10119228
000230 65 e1 f6 3d f3 3a e2 bd f2 c9 98 3e 5a 80 75 be
       0.12054709 -0.110464 0.29841572 -0.23974743
000240 de 3c 52 3f d0 75 6e 3e 54 da 4e 3c 3a a9 d2 3d
       0.82124126 0.2328713 0.012625296 0.10286184
000250 46 f6 bb 3e 41 cc 07 be 96 70 f4 be 3d 04 81 3e
       0.3671133 -0.1326151 -0.47742146 0.25198546
000260 8c 93 3a be 9b d6 5a be 25 54 36 bd bf 5d 97 be
       -0.18220347 -0.21370928 -0.04451384 -0.2956371
000270 22 3f 13 bf 36 fe 43 3e bd e4 7e be e0 8a c2 3e
       -0.5751821 0.19139943 -0.24891944 0.37996578
000280 05 22 44 3e 30 bb ae bd e7 d5 2c bf d7 4d 80 3e
       0.19153602 -0.08531797 -0.6751389 0.25059387
000290 65 28 bb be 92 67 e7 be 8d 70 ee 3e 0e 5c 34 3e
       -0.36554256 -0.45196205 0.46570244 0.17613241
0002a0 fb f2 83 3e 68 94 3b bd a5 bb c8 be 67 d8 01 bf
       0.25771317 -0.045795828 -0.3920566 -0.5072083
0002b0 8d 6e 40 3f 9f 83 08 be 98 ed fc bd ca 0b 9c be
       0.7516869 -0.1333146 -0.12350005 -0.30477744
0002c0 0a 35 3f bd 60 04 b0 bd bd 5f 15 3c b8 b9 b7 3f
       -0.04668144 -0.085945845 0.009117064 1.4353552
0002d0 f1 ce 03 3f 14 bd 55 bf 25 5a 10 3c c7 9a 09 3f
       0.5148764 -0.83491635 0.008810555 0.53751796
0002e0 d7 9b 5c 3f ea 6a bf bd 4a db 9b be d7 12 69 3e
       0.8617529 -0.09346564 -0.30440742 0.22761093
0002f0 5d 3c fc bd 99 09 17 3f fe f6 38 3d cf a7 c1 be
       -0.12316201 0.5899902 0.045157425 -0.3782334
000300 77 57 e7 3e ee f1 09 3e 86 08 38 3e a3 5c 06 bf
       0.45183918 0.13471195 0.17972001 -0.524851
000310 85 7f 11 bf c7 7b 38 bf 6b 87 26 3f 30 de 42 bd
       -0.56835204 -0.7206387 0.6505038 -0.047575176
000320 e6 a2 1a 3f f9 de b8 be 4d 50 f2 bd 5d 97 16 bf
       0.60404813 -0.36107615 -0.118317224 -0.5882471
000330 bf 9e 0d bf 07 9b 0d 3f 82 a0 13 bf a9 02 a2 bd
       -0.5532035 0.5531468 -0.5766679 -0.07910664
000340 6c a9 82 3d da b4 3a 3e 03 b7 3b 3f 3d 33 14 3f
       0.06379971 0.18233052 0.7332613 0.57890683
000350 75 f1 06 be 2b 3e 1e bf a6 39 fc bd 22 e3 a4 3e
       -0.13178046 -0.6181361 -0.12315683 0.3220454
000360 62 7a 2b be c8 16 6d be c9 53 c6 3e c7 09 c1 bc
       -0.16745904 -0.23153222 0.38735798 -0.023564233
000370 a6 90 8f be 3c 5c 87 be 60 5f 0c 3e 9f 67 4f bf
       -0.28040045 -0.26437557 0.13708258 -0.8101749
000380 f0 55 47 bd d2 e3 1d 3e 08 10 15 3f e9 0b 49 3f
       -0.04866594 0.15418938 0.58227587 0.785338
000390 31 07 96 bc c1 fc b7 bb 81 fb 18 3b d1 97 61 3e
       -0.018313976 -0.0056148474 0.0023343267 0.2203057
0003a0 b5 91 cf 3e b5 18 82 3e eb 02 38 be b9 6d 35 3e
       0.40540853 0.25409475 -0.17969863 0.17717637
0003b0 f0 43 5d be eb aa 4c be 72 30 ff be de c4 81 be
       -0.21607947 -0.19987075 -0.49841648 -0.2534551
0003c0 6d fd ca 3e b5 fb d6 be 46 6c 37 3f 2c 1d e1 bd
       0.39646474 -0.41988912 0.7164959 -0.10991892
0003d0 99 4b 5c 3e 45 95 67 3e 3e a5 68 bc e9 df e6 3e
       0.21513213 0.22615536 -0.014199553 0.45092705
0003e0 0f a1 1c 3c 45 7a 69 bf 2e 8a 82 3e 7e bd c8 3d
       0.009559884 -0.91202193 0.25496048 0.09801768
0003f0 93 cd 45 3f 46 c6 80 3e d8 f3 81 3f f6 25 4d bd
       0.77266806 0.2515127 1.015254 -0.05008503

while/MatMul f4 [512, 6]
000000 06 fb 51 3d e2 6e 93 3e 2f b5 1e 3e b1 05 8e 3c
       0.051264785 0.28795534 0.15498804 0.017336698
000010 08 27 07 be 2b 7f 99 3d 68 ea 9c bd 95 21 a2 3d
       -0.13198483 0.074949585 -0.07661897 0.079165615
000020 e6 f6 fa 3d 14 42 18 3e bd 37 ed 3d 9f 18 0d 3e
       0.122541234 0.14868957 0.11582897 0.13778923
000030 ed 57 81 3e 3f 07 42 3d ca 18 f2 3d c7 40 8f be
       0.25262395 0.04737019 0.118211344 -0.2797911
000040 ee d3 b3 be 21 97 1e 3e 82 aa 3f be 7c 09 86 3e
       -0.35122627 0.15487339 -0.18717387 0.2617911
000050 7f 15 98 be 7e 81 12 bf 11 d0 55 be d9 11 d7 bb
       -0.297039 -0.5722884 -0.20880152 -0.006563407
000060 af 44 77 be 7a 92 89 bd ee 61 13 ba 20 36 52 bd
       -0.24147294 -0.06717391 -0.00056221976 -0.05132115
000070 fb f6 47 be d3 86 4b 3e 3d a8 d0 3e 48 8c 01 3f
       -0.1952781 0.1987565 0.40753356 0.5060468
000080 cb 03 00 be d7 5d a3 3d 58 b3 f2 3d ee c9 fa bd
       -0.12501447 0.07976883 0.11850613 -0.12245546
000090 1e de 74 3e 74 eb ee be 8a 43 3e 3f 93 71 68 3e
       0.23912856 -0.4666401 0.74321806 0.22699575
0000a0 07 5c 17 3e 97 51 33 bd f5 73 1b 3d f7 60 7e 3d
       0.147812 -0.043778982 0.037952382 0.06210419
0000b0 f2 b9 1b 3e c7 e0 8d 3e 9e e0 1a 3e ca 45 5f be
       0.15207651 0.27710554 0.15124747 -0.21803966
0000c0 f4 40 1d 3e b0 8b 3c be 15 44 71 3e ae cb 01 bc
       0.15356809 -0.18412662 0.23561127 -0.007922096
0000d0 d3 07 62 3d c2 a5 cd 3c eb 5f 31 3f 25 c6 8a be
       0.055183243 0.025103454 0.69286984 -0.27104297
0000e0 a6 16 81 3e 5a 70 42 be d4 e3 2f 3d 54 90 12 3e
       0.25212592 -0.18988171 0.042941883 0.1431287
0000f0 da ed 51 be a9 e3 1e 3d a4 a5 cb 3e ca 81 63 be
       -0.2050089 0.038791332 0.3977481 -0.2221748
000100 fe 55 3e bd 5d d0 8f b9 f3 23 cf be 4d 12 43 be
       -0.046468727 -0.00027430328 -0.40457115 -0.1904995
000110 2e cc 8a 3c b9 64 89 3d d0 81 47 3d 54 03 71 be
       0.016943064 0.067086644 0.048707783 -0.23536426
000120 b5 e2 ad be 64 35 36 3e 52 f1 6e be 0a 5a 5f bd
       -0.33962026 0.17793804 -0.23334244 -0.054529227
000130 da 39 91 be a2 a0 60 3e a8 87 5a 3e 89 78 9b 3d
       -0.2836445 0.21936277 0.21340811 0.0759135
000140 36 6b a8 3e e2 1d 0d be 43 9c f7 3c 44 dc 81 3e
       0.32894295 -0.1378093 0.030225879 0.25363362
000150 77 e9 21 be 59 01 79 3e 33 ff e1 be cf 49 59 be
       -0.15811716 0.2431692 -0.44140014 -0.21219562
000160 07 33 0b 3e 6b e6 67 be cd 7f 8f 3e c2 e0 af be
       0.13593684 -0.22646491 0.28027192 -0.34351164
000170 98 0f bb bd 9f da e9 be 23 d9 4c bd ac 2e 35 3e
       -0.09133834 -0.45674607 -0.050011765 0.17693585
000180 f2 d2 b0 3d 4b a0 43 3f cd 65 d7 3d 7a 3e 7f 3e
       0.086339846 0.7641646 0.10517464 0.24926177
000190 9a 6e e8 3b 76 52 9e 3d 08 a5 11 bd b0 e3 39 be
       0.007093263 0.07730572 -0.035557777 -0.18153262
0001a0 f5 f3 19 3d 2a 58 37 3e 9b fc 42 3e 95 10 9b 3e
       0.03758617 0.17904726 0.19041674 0.3028609
0001b0 79 6a 87 be 26 d9 35 3e df 84 17 bc a8 02 b9 3c
       -0.2644842 0.17758617 -0.0092479875 0.022584274
0001c0 88 ba 2c 3e f3 7b 88 3e ab 79 bd 3e 25 cb 26 3f
       0.16868031 0.26657066 0.37006888 0.65153724
0001d0 b3 c3 9c 3e ce fc 40 be 71 26 1e 3e 4e 87 0e be
       0.30618057 -0.18846437 0.15444352 -0.13918802
0001e0 d0 c6 19 3f c6 ca 9a 3e 06 fa ec 3c d6 d6 4d 3e
       0.6006899 0.3023283 0.028927814 0.20101485
0001f0 9a 8c e1 ba 09 d2 79 3e bb ba d7 3d a3 07 10 bf
       -0.001720804 0.24396528 0.10533663 -0.5626165
000200 38 42 9f bd 3c 07 08 3f ba 79 a4 3d 91 c8 a5 be
       -0.07776302 0.5313604 0.0803103 -0.32379583
000210 41 2b b8 3e 7b 49 84 be 71 29 1e bf 2c 3d 0c bd
       0.359705 -0.2583731 -0.61781985 -0.034238026
000220 e8 03 96 3d 22 a1 0d 3e b0 a6 d2 3e 27 82 8c 3e
       0.07324964 0.13830999 0.41142797 0.27443048
000230 80 26 33 be 6e 95 a2 3d bf 59 32 3e de de 58 be
       -0.17495155 0.07938658 0.17417048 -0.21178767
000240 4a ce ae 3e 45 a5 4a be 24 04 04 be 30 06 32 bd
       0.3414176 -0.19789608 -0.12892205 -0.043462932
000250 85 0f 8c bd 14 c0 91 3d e6 99 9d bc 3d 5f cc 3e
       -0.068388976 0.07116714 -0.019238424 0.3991641
000260 79 23 5e 3e 38 9e d0 bd 7b 6a 7c bd e2 c8 f6 bd
       0.21693219 -0.10186428 -0.061624985 -0.12050034
000270 aa c0 08 3f 5a 32 c4 be 03 14 5a 3d 82 cb e3 3c
       0.5341898 -0.38319665 0.05324174 0.027807001
000280 55 a2 99 bc 1a 31 56 3e f6 26 fe 3e 2f 66 8a bd
       -0.018754164 0.20917168 0.496391 -0.06757771
000290 63 ff 84 bd 3a e6 72 3e b8 e3 00 be 93 f2 61 be
       -0.06494024 0.23720637 -0.12586868 -0.22065191
0002a0 b5 1b be 3d 26 f7 cc 3e 3d 24 57 3f 55 1d 1b 3e
       0.092826284 0.4003231 0.8403967 0.15147908
0002b0 51 a5 a5 bd 35 a8 76 3d c4 24 d3 3e f3 90 38 3f
       -0.08088172 0.06021901 0.41238987 0.72096175
0002c0 95 dc b3 3e 5e be 07 be 8d 5f 80 3c 8d 99 91 3d
       0.35129228 -0.13256213 0.015670562 0.071093656
0002d0 e2 59 29 3e 68 61 9a bd 04 21 12 3e 93 59 91 be
       0.16538194 -0.0753811 0.14270407 -0.28388652
0002e0 0d 1a 28 3d 61 c7 51 be 88 13 5a 3f e0 d3 e7 3d
       0.04104047 -0.20486213 0.8518605 0.11319709
0002f0 e1 21 db bd 6a 12 1f bd 89 c8 9f bc 06 7e b2 3c
       -0.10699821 -0.03883592 -0.019504802 0.021788608
000300 2e 7e be 3e ac fb 31 3d 0a 6c 92 3e dd 17 96 3e
       0.37205642 0.043452904 0.28598052 0.2931508
000310 0f d4 04 3e bc 9c f8 3b e9 7c 42 be 78 c0 03 bf
       0.12971519 0.0075870436 -0.18992962 -0.5146556
000320 44 5b 08 3f 3d 4d 83 3e 49 4f fa bd 28 eb da bc
       0.5326426 0.25644866 -0.12222154 -0.02672346
000330 07 53 2e 3e 61 ec 1d 3d 03 f3 8b 3d 6a 5f e1 3d
       0.1702386 0.038555507 0.0683346 0.11004527
000340 de 28 b0 3e 4e 1b b1 3c b3 ee 91 3d e6 3d a3 3e
       0.3440618 0.021619465 0.071256064 0.31883162
000350 42 23 40 3e 2d e3 0e bd 4d fd a6 3d 70 17 37 3e
       0.1876345 -0.03488462 0.08153782 0.17880034
000360 d4 98 d1 bd 82 f4 29 3f 85 69 54 3d 42 7b 79 3e
       -0.10234228 0.66388714 0.051858444 0.24363425
000370 6e a6 95 be 07 a8 54 3e 47 d6 97 bd dc ce 40 be
       -0.29228538 0.20767222 -0.07413917 -0.1882891
000380 72 ac 19 3e fd 92 14 3e 3b ba 46 3e f1 d5 1e 3d
       0.15007189 0.14509197 0.19406979 0.03877825
000390 ed 8b 2e 3e 7e 38 10 3e 5f 1a 32 3e 3a 32 f5 3c
       0.17045565 0.1408405 0.17392872 0.029931176
0003a0 2d 92 ab 3e 9a fa 1c bf 35 c8 ca 3e 47 63 ab be
       0.3350996 -0.6131989 0.3960587 -0.3347418
0003b0 b5 99 0f bd 57 7b f5 bc 50 06 45 3e 2a 63 47 bb
       -0.035058696 -0.02996604 0.1924069 -0.0030424097
0003c0 db a0 b2 bd 10 df e5 bd c9 0b 6f 3e 35 f0 64 be
       -0.08722087 -0.112241864 0.2334434 -0.22357257
0003d0 c7 f6 9b 3d 72 22 d1 be 4a fc b2 3d d6 9a 97 3e
       0.076154284 -0.40846592 0.087395266 0.29610318
0003e0 6c 39 6b bd a4 87 89 3e 77 d6 c6 3e 32 a7 14 3e
       -0.05742781 0.26861298 0.388355 0.14516905
0003f0 c7 57 d7 3e b4 5d 89 3d 75 69 56 be 75 d6 3e 3d
       0.42059156 0.067073256 -0.20938666 0.04659124
