wear/src/main/assets/model.tflite (tflite, 143200 bytes, 28 tensors)

sequential/dense_1/BiasAdd/ReadVariableOp f4 [6]
-0.4229789 -0.3604168 -0.29852042 0.06813728 -0.0036659609 -0.96578735
00000000: b190 d8be 8d88 b8be abd7 98be 8f8b 8b3d
00000010: 9e40 70bb d73d 77bf

sequential/dense/BiasAdd/ReadVariableOp f4 [64]
0.040275965 -0.25762188 -0.026056401 -0.016757129 0.16839145 0.078474306 -0.23628493 -0.28696683
-0.14521614 -0.099833444 -0.242704 -0.27474332 -0.12913787 0.40682167 -0.20741071 -0.19603269
-0.16456452 0.006157301 0.40601897 -0.30238938 0.113695316 -0.15218276 -0.18330634 -0.03329926
-0.1311241 -0.08007593 0.21065845 0.12151453 -0.15292373 -0.0052683335 0.008290202 -0.21075192
0.06897354 -0.31500474 -0.10782952 -0.33298242 -0.18054101 -0.14802633 0.17612226 -0.17879927
0.11849806 0.07217702 -0.12868097 -0.3129091 0.108060084 -0.34711316 -0.15948363 0.51662546
0.021571495 0.0459637 0.08260125 0.056139547 0.088026874 0.04653882 0.12876128 -0.28576192
0.02933277 -0.24937747 -0.037557878 -0.2412693 0.026009655 -0.12722108 -0.01432892 -0.22771075
00000000: 69f8 243d 04e7 83be 3c74 d5bc 3f46 89bc
00000010: cf6e 2c3e 23b7 a03d adf4 71be 51ed 92be
00000020: 8ab3 14be 7a75 ccbd 6687 78be 28ab 8cbe
00000030: b83c 04be ee4a d03e 7963 54be cbbc 48be
00000040: 9a83 28be 2fc3 c93b b8e1 cf3e c8d2 9abe
00000050: 17d9 e83d ccd5 1bbe a8b4 3bbe ce64 08bd
00000060: 6545 06be d9fe a3bd d9b6 573e 9cdc f83d
00000070: 0a98 1cbe fca1 acbb a1d3 073c 5acf 57be
00000080: 0042 8d3d 4d48 a1be b9d5 dcbd ac7c aabe
00000090: bedf 38be 3794 17be 6559 343e 2817 37be
000000a0: 1caf f23d 8cd1 933d f2c4 03be 9f35 a0be
000000b0: 9b4e dd3d d1b8 b1be ad4f 23be 9141 043f
000000c0: b4b6 b03c 6f44 3c3d d82a a93d 95f2 653d
000000d0: 6f47 b43d 7d9f 3e3d ffd9 033e 634f 92be
000000e0: 474b f03c cf5c 7fbe 4ad6 19bd 4d0f 77be
000000f0: 3312 d53c 3e46 02be d9c3 6abc 022d 69be

arith.constant f4 [64, 64]
0.07602449 0.057966456 0.08700687 -0.01770974 0.16321181 -0.04253494 0.093645394 0.12744322
0.26123792 0.25555193 0.120286554 -0.08084866 -0.16818725 -0.16201131 -0.0766508 -0.112539366
0.03039031 0.03386808 -0.02023212 0.10229152 0.40233207 0.032396194 0.14431146 0.18249069
0.072295666 -0.1651072 -0.044397585 -0.10454899 -0.024332002 0.003601342 0.11627419 0.071099214
0.03294096 0.04378537 -0.0075013153 0.016977549 0.030475508 -0.035863243 -0.047130518 -0.09005439
-0.02166688 -0.13757837 0.3922408 -0.024029175 0.08282659 -0.28232712 -0.005768446 -0.05442887
0.102805965 0.096826404 -0.025130184 0.30369723 0.20131277 -0.13398954 0.182561 -0.03593472
-0.12731999 0.11375532 -0.12143376 0.020582676 -0.11172029 -0.1272564 0.07973101 -0.17395718
-0.064724766 -0.10675799 0.06141065 -0.116591044 0.18156259 -0.12799214 0.12055405 0.098779626
0.13007681 -0.1321683 0.057202507 0.09787121 0.1967949 -0.083686456 -0.008096202 -0.21875057
0.040076416 -0.036845285 0.1363716 -0.016859949 0.14798205 0.016727699 -0.012507348 0.24170136
-0.059764035 0.057229634 -0.0750619 0.064767726 0.16868263 -0.014652699 -0.07980788 -0.12441092
0.12063311 -0.157824 -0.1308391 0.1270415 -0.15982988 -0.0615292 -0.011755298 0.012129954
-0.080385126 0.05694685 0.24420804 0.055288766 0.041861143 -0.15008804 0.008095272 0.13816005
0.16194423 -0.012687329 0.084542625 -0.021150697 0.09221368 0.041323267 -0.11080001 0.094889626
0.098721854 0.13071571 -0.14465621 0.039580688 -0.002931768 0.24500094 0.023650715 -0.08014791
0.09951687 -0.028435726 0.06335877 -0.02901998 0.012669296 0.23773138 -0.07364163 -0.15930992
-0.0005174527 -0.19708782 0.041526124 -0.050674736 0.002949762 -0.22430725 0.118249804 0.02200942
0.012762748 0.0053061033 -0.105916746 0.2573798 0.19543192 -0.040879115 -0.03799292 0.15921591
0.03850517 0.124737605 0.116789326 0.1252219 0.022452135 0.026955418 -0.11904282 0.051506564
-0.29222172 0.17754833 0.1909008 -0.09079028 0.053753685 0.09546112 0.110478714 0.23952274
-0.027785769 -0.07137882 0.029099053 0.06871497 0.13305736 -0.017328985 -0.06506858 0.21000884
-0.0753525 -0.22521123 0.04630879 0.05497546 0.051879797 -0.05302648 0.034017757 0.11770386
0.19047 -0.055756006 -0.25320342 -0.19788508 -0.033089817 -0.2433649 0.107256025 -0.07400791
0.09838341 -0.01096143 -0.014655694 -0.04554844 0.18108988 -0.053068362 0.3583069 0.05038421
0.095030546 -0.13920197 -0.07517429 -0.04912227 0.15558091 -0.091324285 -0.11383445 -0.19912016
0.04581456 -0.04230488 -0.008000998 0.41741368 0.28874293 0.13703364 -0.2323461 0.37563467
0.12458565 0.029924387 -0.07004843 -0.059165932 -0.18396603 -0.20294945 0.062072586 -0.104756705
0.034619883 -0.15887077 0.34204522 0.05540398 -0.31078175 -0.028388077 -0.012042238 0.107470214
-0.0048469515 -0.14838608 0.19310822 -0.013186582 -0.18527524 -0.18423565 0.20898326 0.12521012
0.16108075 0.18304703 0.27826214 -0.02264237 -0.11684556 0.120657854 0.037794046 0.4209578
-0.002963673 -0.11270515 -0.20715988 0.36383787 -0.09387968 -0.1997487 -0.04912867 -0.13552876
00000000: bab2 9b3d 3c6e 6d3d a830 b23d 0414 91bc
00000010: ff20 273e 1e39 2ebd 28c9 bf3d 7a80 023e
00000020: fac0 853e b4d7 823e cc58 f63d fb93 a5bd
00000030: 4739 2cbe 4be6 25be 18fb 9cbd 0a7b e6bd
00000040: 19f5 f83c 41b9 0a3d d5bd a5bc 377e d13d
00000050: 78fe cd3e dfb1 043d 62c6 133e d7de 3a3e
00000060: c00f 943d dd11 29be 3eda 35bd c81d d6bd
00000070: e853 c7bc 7e04 6c3b 2a21 ee3d 779c 913d
00000080: 1aed 063d 4a58 333d 98cd f5bb 8014 8b3c
00000090: c6a7 f93c 56e5 12bd ee0b 41bd 706e b8bd
000000a0: be7e b1bc 58e1 0cbe c9d3 c83e d5d8 c4bc
000000b0: fda0 a93d 2e8d 90be 3b05 bdbb cff0 5ebd
000000c0: ef8b d23d ec4c c63d d1dd cdbc 347e 9b3e
000000d0: ef24 4e3e 8e34 09be 45f1 3a3e 4930 13bd
000000e0: 2c60 02be 8df8 e83d 43b2 f8bd 009d a83c
000000f0: 9bcd e4bd 804f 02be 034a a33d d521 32be
00000100: 6b8e 84bd efa3 dabd bc89 7b3d 49c7 eebd
00000110: 8beb 393e 5f10 03be 0be5 f63d f94c ca3d
00000120: db32 053e 2057 07be 2d4d 6a3d b370 c83d
00000130: 9a84 493e ce63 abbd efa5 04bc 2600 60be
00000140: 2b27 243d 15eb 16bd ffa4 0b3e e01d 8abc
00000150: 9b88 173e 8708 893c 9feb 4cbc 9080 773e
00000160: 22cb 74bd 9f69 6a3d 0eba 99bd f1a4 843d
00000170: 24bb 2c3e e011 70bc 5072 a3bd 27cb febd
00000180: 7e0e f73d 9d9c 21be affa 05be 2b17 023e
00000190: 72aa 23be 0b06 7cbd 4b99 40bc b7bc 463c
000001a0: f5a0 a4bd 1a41 693d ac11 7a3e 7976 623d
000001b0: 9776 2b3d aeb0 19be 08a2 043c d479 0d3e
000001c0: b5d4 253e 84de 4fbc af24 ad3d 3a44 adbc
000001d0: 87da bc3d 9642 293d 1eeb e2bd 7e55 c23d
000001e0: af2e ca3d 57da 053e c220 14be 5c1f 223d
000001f0: e822 40bb 87e1 7a3e 25bf c13c 9624 a4bd
00000200: 80cf cb3d 0af2 e8bc 3ec2 813d 4fbb edbc
00000210: e192 4f3c db6f 733e 6cd1 96bd 2422 23be
00000220: aaa5 07ba 64d1 49be 4c17 2a3d 5090 4fbd
00000230: cb50 413b cdb0 65be f42c f23d 194d b43c
00000240: d81a 513c d2de ad3b e1ea d8bd 49c7 833e
00000250: 4e1f 483e dc70 27bd 779e 1bbd 7f09 233e
00000260: 99b7 1d3d 6e76 ff3d 3e2f ef3d 2b3a 003e
00000270: 8aed b73c 9cd1 dc3c b9cc f3bd 8cf8 523d
00000280: 169e 95be 3bcf 353e 807b 433e 41f0 b9bd
00000290: d32c 5c3d 1f81 c33d aa42 e23d 7345 753e
000002a0: fb9e e3bc 0f2f 92bd 2361 ee3c 6fba 8c3d
000002b0: 3040 083e 84f5 8dbc ad42 85bd 8f0c 573e
000002c0: 6952 9abd c69d 66be 49ae 3d3d f32d 613d
000002d0: e97f 543d 4b32 59bd 3456 0b3d b90e f13d
000002e0: 910a 433e 6960 64bd e1a3 81be 63a2 4abe
000002f0: 3089 07bd a634 79be 0ca9 db3d 7691 97bd
00000300: 3e7d c93d 9297 33bc 701e 70bc 0091 3abd
00000310: a06f 393e 365e 59bd 0174 b73e ac5f 4e3d
00000320: 609f c23d f68a 0ebe faf4 99bd 6f34 49bd
00000330: 9a50 1f3e 3a08 bbbd 0922 e9bd 28e6 4bbe
00000340: 0ca8 3b3d e247 2dbd 9e16 03bc 3fb7 d53e
00000350: 1dd6 933e 8c52 0c3e 23ec 6dbe 3053 c03e
00000360: c326 ff3d fd23 f53c 8d75 8fbd fa57 72bd
00000370: 9761 3cbe fbd1 4fbe d33f 7e3d af8a d6bd
00000380: 94cd 0d3d 05af 22be 8d20 af3e 49ef 623d
00000390: c91e 9fbe 1d8e e8bc cf4c 45bc 5819 dc3d
000003a0: 2dd3 9ebb 85f2 17be 29be 453e 890c 58bc
000003b0: cbb8 3dbe 45a8 3cbe b5ff 553e 1537 003e
000003c0: 5af2 243e ae70 3b3e 6078 8e3e 7e7c b9bc
000003d0: ba4c efbd 771b f73d eecd 1a3d c887 d73e
000003e0: 2f3a 42bb f5d1 e6bd b821 54be f548 ba3e
000003f0: fd43 c0bd ec8a 4cbe 253b 49bd 0dc8 0abe

arith.constant1 f4 [64, 64]
0.10568435 -0.15728548 -0.05899092 0.0147765335 0.080853626 0.23849057 -0.019430041 -0.027157882
0.11159714 0.15461418 -0.18741384 0.09635615 -0.0024902273 -0.07187213 0.005943789 -0.0022941914
-0.0093621425 0.14369722 0.08955564 0.30956817 0.0036096734 -0.030803485 0.0983791 -4.500807e-05
-0.16741984 0.027773928 0.19412443 0.0058326637 0.05756097 -0.04232268 -0.076034166 0.10363876
-0.08593303 -0.09595321 -0.1416977 -0.03571361 -0.06917009 -0.097184084 0.06646857 0.12326355
0.03671434 0.06327228 -0.0675412 -0.06997472 0.013556924 0.08745233 0.010326095 0.12741841
0.025358303 0.09630545 0.028321892 -0.09286826 -0.076457255 0.111876875 -0.23328395 0.09777461
0.2593167 0.023687229 -0.1452032 0.00503497 -0.16448587 0.034289718 -0.103330635 -0.02035632
-0.09068992 0.030176213 0.10124513 -0.072623506 -0.103613414 -0.1802433 0.06827125 0.009764821
0.16846617 -0.08248419 0.047883153 -0.07659368 0.054183397 -0.08972576 0.08800234 -0.009169337
-0.06038566 -0.03693132 0.16434331 -0.10919442 -0.0028773723 -0.012754314 -0.06107186 -0.068686664
0.11959294 0.065163076 -0.049011525 -0.18647105 -0.0010980617 0.059286878 0.1474639 0.01906414
-0.06727525 0.05353677 0.25486258 0.006237479 0.030199256 0.011012834 0.06836356 0.23011519
-0.077517435 0.10193444 0.17313649 0.33122203 0.22167757 0.025456214 -0.011530778 -0.038950242
0.23148169 -0.02847522 -0.023673013 0.12265419 0.09343 -0.012602025 0.0721267 -0.11357974
-0.09858086 -0.1266519 -0.23413628 0.2540407 0.07045578 -0.03641328 0.12287285 -0.060508143
-0.09196323 0.09635356 -0.02001831 -0.0011847412 -0.021278612 0.015057371 0.007988348 0.24426277
-0.0005863997 0.16924061 0.009555423 0.061648544 -0.21711326 0.13966413 0.07888918 0.1383469
0.15578265 -0.23273607 -0.09631154 -0.06825708 0.12296585 0.102354445 0.13938859 0.04750221
-0.12882796 -0.006036054 0.08467214 -0.039427113 0.19948943 0.037521534 0.18222582 -0.010047306
0.19618922 0.14436741 -0.17642327 -0.16430923 -0.16448584 -0.024111172 -0.32185516 0.1523409
-0.13081588 -0.12408636 0.21786033 0.40064347 0.041513987 0.027324755 0.026905224 -0.13600516
0.048398405 0.037565887 -0.17468125 0.09063417 -0.08518084 -0.21383475 0.045037333 -0.06965203
-0.119759575 0.12724647 -0.06282953 0.058425017 -0.00707388 -0.10447197 0.105048046 0.095143154
-0.11094487 0.0986107 0.03606676 0.16222334 0.06430896 0.010811417 0.077961035 -0.033823103
-0.040034026 0.06974713 0.006223536 0.02364907 -0.2950795 0.03373861 -0.14292145 0.025831182
0.0056314296 -0.28259942 -0.22138871 -0.082461976 0.027026946 -0.08384013 -0.050526623 -0.14104651
-0.06797375 0.014530967 0.100769155 -0.0915855 -0.0615239 0.12312255 -0.0019818873 0.100901216
-0.06778743 -0.103780806 -0.013289118 -0.16884306 -0.0031248343 -0.15282989 -0.101508506 -0.10906396
0.06743942 0.15752646 -0.015571896 0.21045525 0.06851335 -0.04146353 0.07610251 0.000465056
0.15342472 -0.10260345 -0.069173396 -0.0051711523 0.08216532 -0.06196842 0.16425844 0.060380563
-0.11364915 0.21033277 0.12407154 0.17083752 -0.023605036 -0.01796988 -0.07862441 -0.004358303
00000000: 0971 d83d 720f 21be 77a0 71bd 4619 723c
00000010: 9696 a53d df36 743e c02b 9fbc 357a debc
00000020: 0b8d e43d 2e53 1e3e 6ae9 3fbe 6056 c53d
00000030: 1533 23bb b231 93bd 1ec4 c23b 255a 16bb
00000040: ac63 19bc 5d25 133e f368 b73d b87f 9e3e
00000050: 4590 6c3b 9757 fcbc fb7a c93d 0cc7 3cb8
00000060: 1b70 2bbe 2686 e33c 8ec8 463e ee1f bf3b
00000070: 0dc5 6b3d 8c5a 2dbd cdb7 9bbd 8f40 d43d
00000080: a8fd afbd 1e83 c4bd 3419 11be 6f48 12bd
00000090: 0ca9 8dbd 7308 c7bd ac20 883d 9a71 fc3d
000000a0: c761 163d e694 813d 0a53 8abd e84e 8fbd
000000b0: dc1d 5e3c 351a b33d c82e 293c f979 023e
000000c0: 37bc cf3c cb3b c53d 5003 e83c b731 bebd
000000d0: 9f95 9cbd b41f e53d fde1 6ebe 0e3e c83d
000000e0: 29c5 843e b80b c23c 26b0 14be 64fc a43b
000000f0: fc6e 28be 6073 0c3d 039f d3bd 4cc2 a6bc
00000100: a3bb b9bd 1b34 f73c 9b59 cf3d a2bb 94bd
00000110: 4533 d4bd b391 38be ccd1 8b3d a1fc 1f3c
00000120: 6582 2c3e 79ed a8bd 2021 443d 26dd 9cbd
00000130: 69ef 5d3d 24c2 b7bd 923a b43d fd3a 16bc
00000140: f456 77bd 4c45 17bd 9d49 283e 53a1 dfbd
00000150: 4c92 3cbb 78f7 50bc 7d26 7abd 98ab 8cbd
00000160: 25ed f43d 3874 853d 4fc0 48bd 44f2 3ebe
00000170: d6ec 8fba ccd6 723d c700 173e 662c 9c3c
00000180: 9bc7 89bd 5f49 5b3d 597d 823e c463 cc3b
00000190: 6e64 f73c 2c6f 343c 3202 8c3d 51a3 6b3e
000001a0: 76c1 9ebd 01c3 d03d b14a 313e ef95 a93e
000001b0: 72ff 623e 8d89 d03c 97eb 3cbc 4a8a 1fbd
000001c0: 8909 6d3e dd44 e9bc e8ed c1bc 1f32 fb3d
000001d0: 3a58 bf3d b978 4ebc 2ab7 933d 7f9c e8bd
000001e0: c3e4 c9bd 09b1 01be 6cc1 6fbe 9f11 823e
000001f0: 1f4b 903d 1726 15bd c3a4 fb3d 63d7 77bd
00000200: 3857 bcbd 0455 c53d 70fd a3bc 5149 9bba
00000210: 7c50 aebc 31b3 763c 8fe1 023c 0520 7a3e
00000220: 9eb8 19ba 694d 2d3e 598e 1c3c 2f83 7c3d
00000230: f052 5ebe 1d04 0f3e a790 a13d cfaa 0d3e
00000240: 7d85 1f3e 5d52 6ebe fc3e c5bd 5eca 8bbd
00000250: 85d5 fb3d 359f d13d e2bb 0e3e ad91 423d
00000260: 7aeb 03be 17ca c5bb 9668 ad3d 537e 21bd
00000270: f546 4c3e 2eb0 193d 6899 3a3e 759d 24bc
00000280: d4e5 483e 0dd5 133e 4da8 34be ae40 28be
00000290: fa6e 28be cb84 c5bc 33ca a4be 41ff 1b3e
000002a0: 99f4 05be fd20 febd c716 5f3e 2421 cd3e
000002b0: 920a 2a3d 2ad8 df3c 5868 dc3c f044 0bbe
000002c0: 683d 463d b0de 193d a4df 32be 689e b93d
000002d0: 4b73 aebd 7ff7 5abe 1179 383d b9a5 8ebd
000002e0: 8244 f5bd e64c 023e c5ac 80bd 124f 6f3d
000002f0: 02cc e7bb 66f5 d5bd 6e23 d73d 6ada c23d
00000300: 1037 e3bd 68f4 c93d bdba 133d e01d 263e
00000310: 6bb4 833d 5f22 313c 09aa 9f3d 188a 0abd
00000320: b8fa 23bd 95d7 8e3d ceee cb3b b2bb c13c
00000330: a914 97be 7f31 0a3d 005a 12be ea9b d33c
00000340: db87 b83b dfb0 90be b9b3 62be d3e1 a8bd
00000350: 9d67 dd3c 60b4 abbd 01f5 4ebd 7f6e 10be
00000360: d235 8bbd 4b13 6e3c 0f60 ce3d 2e91 bbbd
00000370: 7c00 7cbd ad27 fc3d 8de2 01bb 4ca5 ce3d
00000380: 23d4 8abd 088b d4bd 9aba 59bc 32e5 2cbe
00000390: 05ca 4cbb 707f 1cbe b1e3 cfbd ed5c dfbd
000003a0: ae1d 8a3d 9e4e 213e 4421 7fbc 9581 573e
000003b0: ba50 8c3d aad5 29bd a2db 9b3d c2d2 f339
000003c0: 5f1b 1d3e c221 d2bd c8aa 8dbd c572 a9bb
000003d0: 4b46 a83d 99d2 7dbd 5d33 283e 9c51 773d
000003e0: e3c0 e8bd 7961 573e 3819 fe3d 08f0 2e3e
000003f0: 595f c1bc 9235 93bc d605 a1bd 18d0 8ebb

arith.constant2 f4 [64, 64]
-0.02600435 0.016493823 -0.19862404 -0.0039429963 0.114078194 0.07148297 0.009358555 0.0050049485
0.07087174 0.013773253 0.12080402 -0.34096047 0.05292317 -0.038938627 0.08837383 0.06503383
-0.18909016 -0.008031672 -0.1874317 0.11323971 0.22105834 -0.081918366 -0.039997306 0.12053856
-0.03632187 0.06435383 -0.019697845 -0.12920979 -0.075680785 0.054244768 -0.051730104 0.07439378
-0.10137762 -0.031893726 -0.040096987 0.08107165 0.06414271 -0.021850418 -0.019410236 -0.0010698678
-0.03387139 0.046218798 0.15773572 -0.057215534 0.14699988 -0.07974559 -0.17841667 0.0034516584
0.07867922 -0.11254428 -0.13645175 0.0367904 0.23412284 0.03646406 -0.1318195 -0.07179538
0.018962868 -0.07603281 -0.105570495 0.22884756 0.19424275 -0.04907897 -0.2177384 -0.27972788
-0.016738491 -0.020847164 0.053111132 -0.09671094 0.22443244 -0.008080615 0.12022103 -0.11497501
0.042023223 -0.068618566 -0.04325523 0.0599045 0.103081614 -0.015034823 0.039881893 0.09545988
-0.07942594 -0.1627651 0.028039321 0.08661981 0.13967913 0.06382565 -0.32247987 0.06945896
-0.23051739 0.047128074 -0.11523846 -0.011940944 0.11756883 0.12837857 0.0836458 -0.084076606
0.27644277 -0.16619325 -0.31196597 0.180163 -0.08075741 -0.06888822 0.15061599 0.09682038
-0.03562203 0.19264464 0.27329692 0.11202788 0.044706956 -0.060411666 0.040506583 -0.056356214
-0.11091237 -0.21544294 -0.24846357 -0.07467321 0.07977551 0.0801844 -0.34848174 0.0035264466
0.012070817 0.09497009 -0.058848497 0.09950658 0.2140471 0.030670393 -0.018637791 -0.10252872
-0.0110714575 -0.058647048 0.0023518382 0.0647967 0.10287914 0.17717433 -0.025090912 -0.08315754
-0.045689642 0.089261755 -0.020279065 0.02427592 0.0409342 -0.11368074 0.2751608 -0.06913672
0.012139774 0.09540751 -0.18889686 0.020476522 -0.02862082 -0.02997192 -0.04616905 0.12558717
0.045669563 0.10357041 0.057032585 0.09851138 -0.015269668 -0.063095406 -0.24769694 0.035824317
-0.12677388 0.03832749 0.019052256 0.052656636 -0.17418337 0.083826825 -0.000241605 0.17317618
-0.095111854 -0.04241558 -0.027434632 0.02639041 -0.021117046 0.13055098 -0.19321826 0.08422649
-0.0014861493 -0.09837874 -0.11262247 0.10672677 0.030533122 -0.044522185 -0.10556559 0.04091458
0.08483312 -0.15966831 -0.028488232 0.05615512 0.15322939 -0.1354915 0.085820675 0.082359895
-0.19024667 0.29829466 -0.06178954 0.08465401 -0.057710044 -0.13152888 0.31166238 -0.06051975
-0.045949522 -0.045123458 -0.030078929 0.02010733 0.12946634 0.07745527 -0.20080093 -0.04975947
-0.2027076 0.018937947 -0.02476148 0.12989712 -0.08750283 -0.066642635 -0.16286291 -0.12963946
0.24347052 0.2709209 -0.3159895 0.05281229 -0.46838123 0.059379343 -0.055338554 -0.27569297
0.12952295 -0.11008389 0.30930758 0.271553 -0.14764898 -0.05462142 -0.00364168 0.2691925
-0.025159366 -0.012863901 0.059089612 -0.08968015 -0.118435524 0.065554306 0.011237389 -0.127491
0.12757576 0.061339226 -0.22686332 -0.32192525 -0.026887145 0.085490994 -0.104755305 0.12969421
-0.01878941 -0.0034889376 0.041235033 0.2056909 -0.082708865 0.043922897 -0.1668686 -0.30857286
00000000: 1307 d5bc 0e1e 873c 1a64 4bbe 4034 81bb
00000010: d4a1 e93d aa65 923d a054 193c 8d00 a43b
00000020: 3425 913d 36a9 613c 1968 f73d 5f92 aebe
00000030: f7c5 583d 1c7e 1fbd 57fd b43d 7530 853d
00000040: daa0 41be 4697 03bc 18ee 3fbe 39ea e73d
00000050: 1e5d 623e d1c4 a7bd 37d4 23bd ecdc f63d
00000060: 3ec6 14bd f1cb 833d 605d a1bc 924f 04be
00000070: 87fe 9abd c32f 5e3d f2e2 53bd c45b 983d
00000080: 129f cfbd ffa2 02bd bd3c 24bd e508 a63d
00000090: 415d 833d a6ff b2bc 3702 9fbc ce3a 8cba
000000a0: babc 0abd ec4f 3d3d 7985 213e d65a 6abd
000000b0: 2387 163e a851 a3bd dcb2 36be 3835 623b
000000c0: 9222 a13d 9e7d e6bd 02ba 0bbe 88b1 163d
000000d0: e6bd 6f3e 575b 153d b1fb 06be 7509 93bd
000000e0: 0458 9b3c 17b7 9bbd 5835 d8bd 0457 6a3e
000000f0: 92e7 463e 0807 49bd d1f6 5ebe 7e38 8fbe
00000100: 291f 89bc acc7 aabc 0f8b 593d 6310 c6bd
00000110: 9ed1 653e 8e64 04bc 7236 f63d 0578 ebbd
00000120: 8b20 2c3d e487 8cbd 652c 31bd 6c5e 753d
00000130: 741c d33d 9e54 76bc 325b 233d 7880 c33d
00000140: 11aa a2bd e5ab 26be b8b2 e53c ba65 b13d
00000150: 0c08 0f3e 06b7 823d 151c a5be 8040 8e3d
00000160: c00c 6cbe 5e09 413d 2402 ecbd f3a3 43bc
00000170: edc7 f03d ac75 033e 7d4e ab3d 5b30 acbd
00000180: e889 8d3e 902e 2abe 01ba 9fbe a67c 383e
00000190: 2464 a5bd 4415 8dbd 143b 1a3e c349 c63d
000001a0: 68e8 11bd a344 453e 93ed 8b3e e06e e53d
000001b0: a41e 373d 3972 77bd 3bea 253d c6d5 66bd
000001c0: 0626 e3bd 139d 5cbe 3c6d 7ebe 45ee 98bd
000001d0: 5861 a33d b837 a43d 336c b2be f51b 673b
000001e0: adc4 453c ae7f c23d 1f0b 71bd 1bca cb3d
000001f0: 2a2f 5b3e 7a40 fb3c 48ae 98bc 94fa d1bd
00000200: 0f65 35bc e337 70bd 4c21 1a3b 22b4 843d
00000210: 4cb2 d23d 306d 353e 758b cdbc 804e aabd
00000220: 1025 3bbd dece b63d 4820 a6bc 4bde c63c
00000230: 9faa 273d 73d1 e8bd e0e1 8c3e 8d97 8dbd
00000240: e7e5 463c 0365 c33d 2e6e 41be 61be a73c
00000250: 3676 eabc ac87 f5bc c21b 3dbd ec99 003e
00000260: 0210 3b3d b91c d43d 009b 693d 56c0 c93d
00000270: a12d 7abc 2a38 81bd 44a4 7dbe 85bc 123d
00000280: 03d1 01be 49fd 1c3d 7a13 9c3c 7cae 573d
00000290: 205d 32be 66ad ab3d 5957 7db9 1955 313e
000002a0: 01ca c2bd f6bb 2dbd 98be e0bc b330 d83c
000002b0: a8fd acbc 28af 053e 02db 45be f07e ac3d
000002c0: e5ca c2ba cb7a c9bd 9ca6 e6bd 9193 da3d
000002d0: 9920 fa3c e55c 36bd c632 d8bd 0c96 273d
000002e0: fdbc ad3d 1780 23be 2760 e9bc e902 663d
000002f0: 2ae8 1c3e 49be 0abe c0c2 af3d 4eac a83d
00000300: 06d0 42be 14ba 983e 0717 7dbd 155f ad3d
00000310: 5e61 6cbd 82af 06be 3692 9f3e 8fe3 77bd
00000320: 9135 3cbd 60d3 38bd 1668 f6bc 21b8 a43c
00000330: d392 043e dea0 9e3d c29e 4dbe 96d0 4bbd
00000340: 9592 4fbe c123 9b3c 96d8 cabc c003 053e
00000350: af34 b3bd ef7b 88bd 89c5 26be 35c0 04be
00000360: 5650 793e 25b6 8a3e 60c9 a1be b351 583d
00000370: aacf efbe c137 733d aeaa 62bd a127 8dbe
00000380: aaa1 043e aa73 e1bd 905d 9e3e ff08 8b3e
00000390: 4b31 17be b6ba 5fbd 41a9 6ebb 99d3 893e
000003a0: 041b cebc 1dc3 52bc f307 723d 3aaa b7bd
000003b0: 538e f2bd 5641 863d 071d 383c 008d 02be
000003c0: 38a3 023e d73e 7b3d dc4e 68be 63d3 a4be
000003d0: 6e42 dcbc e715 af3d f389 d6bd 8fce 043e
000003e0: 40ec 99bc a9a6 64bb 11e6 283d a3a0 523e
000003f0: 4463 a9bd 7fe8 333d 9adf 2abe 43fd 9dbe

arith.constant3 f4 [64, 64]
0.024896579 0.0026528982 -0.10905336 -0.049212668 0.075593576 -0.06576316 -0.034885906 -0.033885133
0.15508737 -0.11436311 0.06811813 0.09156309 -0.03428576 -0.11260053 -0.002916532 -0.28513634
0.12614381 0.11717778 -0.06990836 0.1357336 0.22255193 -0.06842219 0.055787563 0.24199821
0.031409208 -0.06270649 0.025174329 -0.32053185 0.023798937 -0.08580254 -0.037095558 0.1658314
0.025455212 0.09832656 -0.054500774 -0.13354856 0.011702794 0.055728726 0.20192881 -0.13774993
-0.0753406 -0.11758787 0.304295 0.029308265 0.18910734 -0.21055552 0.039877713 0.27996564
0.20274359 0.008128996 0.12578075 0.17327721 0.2694865 0.12346256 0.14031835 -0.023056155
0.116761036 -0.1377293 -0.20319052 0.10282849 0.0033973376 -0.16919772 -0.3024506 -0.24138379
-0.10701796 0.046702705 -0.042242844 -0.10669345 0.1908288 -0.071948834 -0.16859634 -0.104740664
-0.207739 -0.10877563 0.028303795 0.07412842 0.11771022 0.032827187 0.015570841 -0.14487591
0.13433844 0.15784669 0.1547892 0.014193793 0.062463015 -0.033408068 -0.15379627 0.07616841
-0.22285588 -0.08471276 -0.07144348 -0.034385365 0.03513078 -0.0027792335 -0.14300711 -0.05243076
0.05328217 -0.05815608 -0.03253638 0.2323525 -0.090096384 0.0388739 -0.012801886 0.07249
-0.010782511 -0.07776749 0.100115456 0.08421607 0.08284909 -0.22798431 0.024450332 0.19137362
0.089575 -0.11352889 -0.059714917 -0.06774159 0.124478646 0.0958611 -0.037424196 -0.0062924917
0.016324032 -0.058548946 -0.15721321 0.13235252 7.10383e-05 -0.11158994 0.07074092 -0.052370805
-0.010608273 -0.15052873 0.010715294 -0.017110337 -0.0342942 0.031306863 -0.17231607 -0.13448589
-0.001593421 -0.025554404 -0.051610544 0.0454544 -0.15331732 -0.06788334 0.11493731 -0.07284405
0.052953936 0.12477494 -0.104110464 0.14212905 0.3115132 -0.05877422 0.06903315 -0.0072834007
0.04455595 -0.06860023 0.12625949 0.09008736 0.08075487 -0.015582427 -0.02906469 -0.042353038
-0.08672905 0.16069646 0.11957202 -0.076315016 -0.07282172 0.18893492 0.07689268 0.048657052
-0.008449843 -0.071383856 0.026857415 0.057348203 -0.02561142 0.08099044 -0.17091514 0.1310335
0.0017418705 -0.011519382 0.124747075 0.163342 -0.029369537 -0.053473134 -0.09309866 0.20644766
-0.027266087 -0.10052817 -0.0966851 -0.086856514 0.07557081 -0.219198 0.2058642 0.2045996
0.19356452 0.14359772 -0.15213908 -0.10413845 0.044675153 -0.13168152 0.11304781 0.008266082
0.037373386 0.06779885 -0.30668858 0.10667191 0.06883095 -0.16899209 0.03582019 -0.3024872
-0.042154927 0.100754425 -0.15456271 0.11136745 0.24434642 0.07782878 -0.066318825 0.4597844
0.24039388 -0.067587055 -0.10121435 -0.055776887 -0.25676927 -0.120445445 -0.16632591 0.06285107
-0.007771059 -0.2372679 0.17605077 -0.0007395449 -0.32737985 -0.20320342 0.11489825 -0.016150735
0.030971082 0.123184115 0.26443312 0.019495714 0.0932976 -0.15693127 0.0030923197 0.030155446
0.3280422 0.032151967 0.2897153 0.16564919 0.21619573 0.01736998 -0.004024898 0.48120138
0.14709555 0.15980783 -0.28019395 -0.046953347 -0.14357063 -0.34816498 0.16740935 -0.054293714
00000000: e9f3 cb3c 3fdc 2d3b 5e57 dfbd 3993 49bd
00000010: ced0 9a3d d6ae 86bd 86e4 0ebd 23cb 0abd
00000020: 39cf 1e3e 3537 eabd 8581 8b3d 6e85 bb3d
00000030: 3a6f 0cbd 1b9b e6bd 4a23 3fbb 64fd 91be
00000040: d82b 013e e7fa ef3d 1d2c 8fbd c0fd 0a3e
00000050: a7e4 633e ef20 8cbd 8081 643d 61ce 773e
00000060: f1a6 003d 436c 80bd 653a ce3c c01c a4be
00000070: fdf5 c23c 3eb9 afbd 83f1 17bd b5cf 293e
00000080: 7387 d03c 6f5f c93d 343c 5fbd f4c0 08be
00000090: 13bd 3f3c ce43 643d 6dc6 4e3e 510e 0dbe
000000a0: 2c4c 9abd e9d1 f0bd 8ecc 9b3e e317 f03c
000000b0: 5ba5 413e de9b 57be d056 233d a857 8f3e
000000c0: 049c 4f3e 7b2f 053c abcc 003e 956f 313e
000000d0: 22fa 893e f0d9 fc3d 9daf 0f3e 43e0 bcbc
000000e0: 6920 ef3d e908 0dbe 2d11 50be be97 d23d
000000f0: dea5 5e3b 2b42 2dbe ceda 9abe 502d 77be
00000100: 3b2c dbbd 564b 3f3d d506 2dbd 1882 dabd
00000110: a068 433e e959 93bd 85a4 2cbe 4682 d6bd
00000120: 88b9 54be c2c5 debd 5cdd e73c a4d0 973d
00000130: 0e12 f13d cd75 063d d71c 7f3c 5a5a 14be
00000140: 0490 093e 90a2 213e 0f81 1e3e 158d 683c
00000150: 38d9 7f3d e6d6 08bd c57c 1dbe 2ffe 9b3d
00000160: 5534 64be e27d adbd f650 92bd abd7 0cbd
00000170: 4be5 0f3d cd23 36bb 7570 12be a3c1 56bd
00000180: 683e 5a3d 1235 6ebd de44 05bd d0ed 6d3e
00000190: 7484 b8bd 3d3a 1f3d 00bf 51bc a375 943d
000001a0: 21a9 30bc 9044 9fbd 5509 cd3d 7a79 ac3d
000001b0: c9ac a93d b874 69be 104c c83c 72f7 433e
000001c0: 1973 b73d d681 e8bd a197 74bd 1abc 8abd
000001d0: a9ee fe3d d352 c43d 1d4a 19bd 3f31 cebb
000001e0: fab9 853c 05d1 6fbd 80fc 20be 6b87 073e
000001f0: 66fa 9438 4489 e4bd 9ee0 903d c582 56bd
00000200: 52ce 2dbc 3424 1abe 338f 2f3c fa2a 8cbc
00000210: 1378 0cbd a03b 003d a073 30be abb6 09be
00000220: 56da d0ba 7857 d1bc 9465 53bd 652e 3a3d
00000230: 37ff 1cbe 6c06 8bbd 4164 eb3d 432f 95bd
00000240: 3ae6 583d 018a ff3d de37 d5bd 478a 113e
00000250: a87e 9f3e 3dbd 70bd 4161 8d3d 98a9 eebb
00000260: 4d80 363d 477e 8cbd 2b4a 013e b97f b83d
00000270: cf62 a53d 704d 7fbc 1319 eebc 617a 2dbd
00000280: 009f b1bd 9d8d 243e 2de2 f43d 0c4b 9cbd
00000290: 8e23 95bd 2878 413e e979 9d3d 9e4c 473d
000002a0: 3671 0abc b331 92bd 1504 dc3c f3e5 6a3d
000002b0: 0acf d1bc 51de a53d 6104 2fbe a52d 063e
000002c0: 7a4f e43a cabb 3cbc 657b ff3d 2043 273e
000002d0: 6298 f0bc a506 5bbd 83aa bebd 0467 533e
000002e0: 215d dfbc b7e1 cdbd d602 c6bd d4e1 b1bd
000002f0: dec4 9a3d 7175 60be 11ce 523e 8f82 513e
00000300: c735 463e 480b 133e 59ca 1bbe 8a46 d5bd
00000310: 4bfd 363d 85d7 06be 9c85 e73d 766e 073c
00000320: d614 193d 20da 8a3d 4906 9dbe cd76 da3d
00000330: 3ef7 8c3d 430c 2dbe 31b8 123d 9adf 9abe
00000340: a5aa 2cbd 5658 ce3d b045 1ebe 9e14 e43d
00000350: f335 7a3e b264 9f3d 2ad2 87bd dc68 eb3e
00000360: d029 763e 156b 8abd 7849 cfbd 4e76 64bd
00000370: 4377 83be 1aac f6bd 5751 2abe 10b8 803d
00000380: 5ea4 febb 5bf6 72be a746 343e 05de 41ba
00000390: 559e a7be 8f14 50be c64f eb3d 8c4e 84bc
000003a0: 11b7 fd3c f447 fc3d c763 873e 7ab5 9f3c
000003b0: d012 bf3d 97b2 20be 84a8 4a3b 8e08 f73c
000003c0: 26f5 a73e c8b1 033d 9055 943e f19f 293e
000003d0: 6a62 5d3e 7d4b 8e3c 4be3 83bb 0760 f63e
000003e0: 37a0 163e aaa4 233e 9575 8fbe 2752 40bd
000003f0: 2e04 13be ae42 b2be 5b6d 2b3e 1663 5ebd

arith.constant4 f4 [64]
-0.16847998 -0.048036445 -0.07015845 -0.18959942 -0.22038439 -0.09875027 -0.19037502 -0.2694367
-0.1971027 -0.10489036 -0.03650468 -0.057168346 -0.19133963 -0.11109783 -0.07824081 -0.23682076
-0.22868985 -0.08328322 -0.21270035 -0.18793255 -0.23623255 -0.22509955 -0.18239856 -0.25663412
-0.033161864 -0.20752825 -0.27328426 -0.09447692 -0.21832862 -0.031539533 -0.22991797 -0.05251284
-0.16851607 -0.0877697 -0.08007552 -0.17703936 -0.21649155 -0.1765076 -0.06583258 -0.11080717
-0.17338502 -0.13393402 -0.2082155 0.047138486 -0.19315064 -0.11819583 -0.2957452 -0.034509733
-0.08736824 -0.17045675 -0.08706958 -0.11305303 -0.0024658728 -0.024311328 -0.04980641 -0.20975357
-0.009367668 -0.14585717 -0.11441544 -0.026713189 -0.15923198 0.18980207 -0.32029596 -0.109532066
00000000: 0486 2cbe ddc1 44bd 3caf 8fbd 5a26 42be
00000010: 72ac 61be 953d cabd abf1 42be 9bf3 89be
00000020: 4ad5 49be c2d0 d6bd ee85 15bd 5b29 6abd
00000030: 89ee 43be 4287 e3bd b83c a0bd 2481 72be
00000040: ac2d 6abe 6590 aabd 1fce 59be 6471 40be
00000050: f2e6 71be 7f80 66be b0c6 3abe 8c65 83be
00000060: bcd4 07bd 4982 54be eaeb 8bbe 1e7d c1bd
00000070: 8a91 5fbe 992f 01bd 9e6f 6bbe b417 57bd
00000080: 7a8f 2cbe 9ac0 b3bd a2fe a3bd ce49 35be
00000090: f6af 5dbe 69be 34be 3bd3 86bd dfee e2bd
000000a0: d88b 31be 0026 09be 7236 55be 4914 413d
000000b0: 48c9 45be a810 f2bd ea6b 97be 145a 0dbd
000000c0: 1fee b2bd 378c 2ebe 8951 b2bd 5988 e7bd
000000d0: 7b9a 21bb 8d28 c7bc ce01 4cbd a4c9 56be
000000e0: d97a 19bc 955b 15be a452 eabd 9ed5 dabc
000000f0: b50d 23be 795b 423e d5fd a3be 5952 e0bd

arith.constant5 f4 [64]
-0.14726615 0.05103775 0.26317635 0.06770166 -0.20356204 -0.059526835 -0.14704016 0.18487364
0.04359716 0.035423875 0.09407868 -0.08311554 0.0007932412 0.18967313 -0.07408065 0.10429353
0.11384174 -0.1558498 -0.0020073298 -0.14554963 -0.20398813 -0.08048247 0.11036016 -0.15255736
-0.14919686 0.00055013166 0.06451174 0.007800744 0.010122574 0.039415948 0.21364327 0.0677386
0.13768922 0.13646136 -0.04809466 -0.107077494 0.16155359 0.14247963 -0.0984599 -0.04169641
-0.05221418 -0.10454369 -0.22268248 0.05548753 -0.014127123 0.19659254 0.04651992 -0.16227426
-0.10501285 0.14741533 -0.026707174 0.028435962 -0.18000332 -0.005501838 0.04873463 -0.20864846
-0.1894525 -0.089674026 0.060945366 -0.022693232 0.12217723 0.14165427 0.10810243 0.17244262
00000000: f0cc 16be f60c 513d 0dbf 863e 2ba7 8a3d
00000010: 9172 50be 69d2 73bd b291 16be 844f 3d3e
00000020: f092 323d a018 113d 53ac c03d 7b38 aabd
00000030: 84f1 4f3a ac39 423e 99b7 97bd d997 d53d
00000040: dc25 e93d 1797 1fbe 688d 03bb f60a 15be
00000050: 44e2 50be fed3 a4bd 8204 e23d ff37 1cbe
00000060: 10c7 18be b636 103a bb1e 843d 629d ff3b
00000070: 27d9 253c 9e72 213d 4dc5 5a3e 89ba 8a3d
00000080: 67fe 0c3e 87bc 0b3e e8fe 44bd 724b dbbd
00000090: 4e6e 253e 2ee6 113e 58a5 c9bd dbc9 2abd
000000a0: 89de 55bd 011b d6bd e006 64be e446 633d
000000b0: 7375 67bc 8e4f 493e ac8b 3e3d 392b 26be
000000c0: fa10 d7bd 0bf4 163e 01c9 dabc 89f2 e83c
000000d0: ca52 38be c348 b4bb f79d 473d f1a7 55be
000000e0: d6ff 41be 04a7 b7bd d9a1 793d 28e7 b9bc
000000f0: 0e38 fa3d d10d 113e cf64 dd3d cc94 303e

arith.constant6 f4 [64]
0.97238857 1.1006907 1.0137552 1.1768272 0.8869011 1.004744 1.0075251 0.9639741
0.9793313 0.8999444 1.1000154 1.0483418 1.3191663 0.943415 1.1422324 0.9668097
1.4377702 1.140752 1.2358565 0.87071437 1.1530435 0.83642924 0.9441072 0.89080554
1.2247239 1.0662225 0.8582026 1.0833946 0.9651077 1.0494354 0.9357955 0.9761575
1.0393074 1.0252671 1.0010784 1.1369178 0.99089956 1.0924934 0.8605634 1.1526963
0.8926531 0.98654103 1.1433848 1.1358643 0.91376925 1.0263078 0.991871 1.0935483
1.0171123 1.1490673 1.112021 1.0714338 1.2371643 1.1197815 1.0252676 1.1040226
1.2106903 1.058884 0.98551667 1.1980518 1.0672945 1.2418144 1.1764224 1.2028902
00000000: 75ee 783f 6fe3 8c3f bbc2 813f 46a2 963f
00000010: f30b 633f 749b 803f 95f6 803f 02c7 763f
00000020: 75b5 7a3f c262 663f 4ecd 8c3f 1030 863f
00000030: 71da a83f a583 713f ac34 923f d780 773f
00000040: db08 b83f 2904 923f 8c30 9e3f 23e7 5e3f
00000050: ee96 933f 3a20 563f 02b1 713f d50b 643f
00000060: c1c3 9c3f fb79 883f 2ab3 5b3f adac 8a3f
00000070: 4c11 773f e653 863f 4b90 6f3f 75e5 793f
00000080: 0608 853f f43b 833f 5623 803f 8686 913f
00000090: 98ab 7d3f d3d6 8b3f e24d 5c3f 8d8b 933f
000000a0: ea84 643f f48d 7c3f 6f5a 923f 0064 913f
000000b0: c8ec 693f 0e5e 833f 42eb 7d3f 64f9 8b3f
000000c0: bc30 823f a314 933f b456 8e3f be24 893f
000000d0: 665b 9e3f 0055 8f3f f83b 833f 9d50 8d3f
000000e0: e6f7 9a3f 8389 873f d24a 7c3f c359 993f
000000f0: 1b9d 883f c6f3 9e3f 0295 963f 4ef8 993f

arith.constant7 f4 [64]
-0.23381022 -0.022025758 -0.061239533 -0.14603184 -0.20266894 -0.19219977 -0.23123348 -0.23186858
-0.25605783 -0.098575495 -0.18729658 -0.14229658 -0.0859253 -0.17166658 -0.1070411 -0.18619499
-0.0026825608 -0.20604813 -0.14596601 -0.20278893 -0.15451412 -0.19916864 -0.23551242 -0.24516186
-0.110666275 -0.26378903 -0.28022826 -0.29770303 -0.23696695 -0.10660182 -0.243733 -0.13168678
-0.17011702 -0.19752318 -0.40133438 -0.12168493 -0.31399688 -0.12084475 -0.118695095 -0.24278086
-0.26826212 -0.119004786 -0.061558545 0.015576244 -0.111888714 -0.12886369 -0.37944013 -0.106993936
-0.1278717 -0.13099582 0.011098771 0.011985694 -0.11137366 -0.099509194 -0.028248742 -0.17089516
0.039312378 -0.08408603 -0.10323684 -0.28833228 -0.1455782 -0.014609808 -0.15475956 -0.21219164
00000000: f26b 6fbe 5d6f b4bc 4ed6 7abd 5f89 15be
00000010: 7288 4fbe 04d0 44be 78c8 6cbe f56e 6dbe
00000020: 031a 83be f3e1 c9bd adca 3fbe 32b6 11be
00000030: 9bf9 afbd 5dc9 2fbe 5d38 dbbd e6a9 3ebe
00000040: e7cd 2fbb 48fe 52be 1d78 15be e7a7 4fbe
00000050: f338 1ebe ddf2 4bbe 2b2a 71be b60b 7bbe
00000060: 00a5 e2bd 5b0f 87be 147a 8fbe 886c 98be
00000070: 77a7 72be 0e52 dabd 2595 79be e6d8 06be
00000080: 2833 2ebe 8443 4abe b37b cdbe f335 f9bd
00000090: 33c4 a0be 747d f7bd 6a16 f3bd 8c9b 78be
000000a0: a759 89be c8b8 f3bd d024 7cbd 8133 7f3c
000000b0: e925 e5bd d8f4 03be fa45 c2be a31f dbbd
000000c0: cdf0 02be c523 06be 9fd7 353c a55f 443c
000000d0: e017 e4bd 7acb cbbd e869 e7bc 24ff 2ebe
000000e0: 0406 213d 4c35 acbd d66d d3bd 4aa0 93be
000000f0: 7412 15be fa5d 6fbc 4a79 1ebe c448 59be

arith.constant8 f4 [64, 32]
0.12053085 -0.31642506 -0.06937475 -0.1212329 -0.056766577 0.08252062 -0.137371 0.059540894
0.08674889 0.0051639643 -0.09113832 0.049439155 -0.13222852 -0.0626357 0.08337958 -0.003035652
0.028804556 0.063404605 -0.18131334 0.16707024 0.19130987 0.15057358 0.06842621 -0.092915975
0.13761714 0.10833172 -0.022140238 -0.07828441 -0.022840325 0.3129697 0.042587887 -0.027264422
0.0049576433 -0.092952974 0.11353257 -0.03827537 0.033604257 0.03249619 -0.04955792 0.1953353
0.10362216 0.31474954 -0.13067016 0.041925564 0.086747594 0.10036412 0.3454375 0.1709946
0.08926903 -0.047931977 0.06449348 -0.20259127 -0.011699316 0.02210265 -0.06863913 0.02366206
0.23151256 0.069374785 0.22165748 0.10333977 -0.015366593 0.0033970857 -0.10767855 -0.0211213
-0.16762708 0.06275688 0.039070282 0.025598034 0.08982499 -0.051371213 0.03138619 0.035096195
-0.06419568 -0.19207029 0.00784743 -0.100051664 -0.022251414 -0.006901472 0.38134325 -0.1844881
-0.12355344 0.3547454 -0.0529292 -0.029973663 -0.008429036 0.057705145 0.05908787 0.21273847
-0.14482786 -0.03123866 0.1405421 -0.093270436 -0.059691045 0.13617916 0.09138617 0.2859872
-0.07639683 -0.04146988 0.07715997 0.51816297 0.38349217 -0.03959028 0.3782183 -0.14977017
-0.34364405 -0.19325578 -0.454491 -0.1655233 0.07464026 -0.40830725 0.26501033 -0.23490499
-0.5164131 0.04595663 -0.089732096 -0.7253325 -0.06680667 0.25456378 0.19408153 0.12236132
0.23695834 -0.038870867 0.25907585 -0.0050032814 -0.024700733 -0.100356445 0.10462904 0.3063937
0.14911185 -0.06445662 -0.29670838 -0.26159307 0.084087536 0.17769252 -0.0512165 0.14774455
0.11949525 -0.1295006 0.2242502 -0.023381842 0.055741787 0.0952368 0.11218149 -0.0956835
-0.16635731 -0.038974326 0.08719053 0.07836107 0.1385057 0.10716431 -0.18372376 -0.14731036
-0.098909564 0.07265389 -0.070214964 0.06779863 -0.09579974 0.08672267 -0.30755126 -0.038827535
-0.2074637 -0.0009747468 0.132435 0.10035757 0.097892575 0.13888493 -0.16012783 -0.18306576
0.18010455 -0.0786238 0.10588661 0.14813298 -0.12352668 0.29148445 0.2849044 0.04790313
0.13456045 -0.38210273 0.12692308 -0.2893023 -0.1743321 -0.0036029767 -0.17667955 -0.03158618
-0.074339055 -0.13518228 -0.09199169 0.12617826 0.2525881 0.25908402 0.03731966 -0.1591945
0.2664913 -0.21901126 -0.03632104 -0.054092098 0.012360448 -0.011846161 0.22377412 -0.17015184
0.07661915 0.06494408 0.010020865 -0.17437765 0.012053326 -0.13244233 0.016964326 0.045177717
-0.2784546 -0.28028983 -0.22233383 -0.027795305 0.1372203 0.1578218 0.32631224 0.12734313
0.17086267 -0.019875769 -0.1788148 -0.0054028644 0.19405381 0.435961 0.14246427 -0.19951466
0.06362417 -0.058110572 -0.07207475 0.060153916 -0.12644494 -0.06671068 -0.0073127775 -0.110770926
-0.007488037 -0.091834806 -0.06261247 -0.04519579 0.10577821 0.33368942 0.34272859 0.21278794
-0.09904401 -0.016494388 0.004075893 0.21094456 0.43220755 0.14634608 0.21736212 -0.119595304
0.08128009 0.116524726 0.10450648 -0.060569987 0.054731686 0.051573317 -0.019980129 0.2500945
00000000: e1d8 f63d 7702 a2be 5914 8ebd f448 f8bd
00000010: 1284 68bd 9200 a93d fcaa 0cbe 27e1 733d
00000020: 67a9 b13d 7936 a93b baa6 babd b680 4a3d
00000030: ea66 07be 2547 80bd eac2 aa3d caf1 46bb
00000040: 88f7 eb3c 46da 813d 34aa 39be 7614 2b3e
00000050: bce6 433e f62f 1a3e 0a23 8c3d bb4a bebd
00000060: 82eb 0c3e 05dd dd3d 725f b5bc 9453 a0bd
00000070: a21b bbbc 913d a03e a370 2e3d a359 dfbc
00000080: ba73 a23b 215e bebd c483 e83d a2c6 1cbd
00000090: 9ea4 093d ba1a 053d 3ffd 4abd fa05 483e
000000a0: db37 d43d da26 a13e 66ce 05be 24ba 2b3d
000000b0: b9a8 b13d b48b cd3d 2fdd b03e 3519 2f3e
000000c0: aed2 b63d 5254 44bd 2815 843d 1674 4fbe
000000d0: 7dae 3fbc 9e10 b53c ac92 8cbd f0d6 c13c
000000e0: a111 6d3e 5e14 8e3d 2efa 623e cda3 d33d
000000f0: 2ac4 7bbc a4a1 5e3b 9286 dcbd 9406 adbc
00000100: 6fa6 2bbe ae86 803d 2908 203d f8b2 d13c
00000110: 2af6 b73d 9f6a 52bd ce8e 003d 07c1 0f3d
00000120: 0679 83bd 13ae 44be 8292 003c e3e7 ccbd
00000130: 9948 b6bc be25 e2bb 6c3f c33e 73ea 3cbe
00000140: 9609 fdbd 30a1 b53e 4acc 58bd 548b f5bc
00000150: f019 0abc 3b5c 6c3d 1f06 723d 1dd8 593e
00000160: c14d 14be 38e8 ffbc 45ea 0f3e 9204 bfbd
00000170: 997e 74bd 8d72 0b3e ac28 bb3d ea6c 923e
00000180: f175 9cbd 52dc 29bd 0c06 9e3d 54a6 043f
00000190: 1659 c43e 6b29 22bd d4a5 c13e 5a5d 19be
000001a0: 1df2 afbe d8e4 45be 0bb3 e8be f17e 29be
000001b0: fedc 983d a60d d1be 6faf 873e ef8a 70be
000001c0: a633 04bf 053d 3c3d 76c5 b7bd 64af 39bf
000001d0: efd1 88bd 2f56 823e 4fbd 463e 9298 fa3d
000001e0: 35a5 723e 0f37 1fbd 97a5 843e 91f2 a3bb
000001f0: 3159 cabc ae87 cdbd c047 d63d a3df 9c3e
00000200: c7b0 183e d501 84bd 29ea 97be 87ef 85be
00000210: 1636 ac3d 07f5 353e 65c8 51bd 594a 173e
00000220: edb9 f43d ce9b 04be d8a1 653e 478b bfbc
00000230: 8051 643d 830b c33d 69bf e53d b6f5 c3bd
00000240: 9259 2abe 8ba3 1fbd f390 b23d c57b a03d
00000250: 70d4 0d3e f678 db3d 1522 3cbe 87d8 16be
00000260: 1991 cabd 90cb 943d ddcc 8fbd 02da 8a3d
00000270: a732 c4bd a89b b13d 5c77 9dbe 9f09 1fbd
00000280: 5d71 54be 2786 7fba 0a9d 073e 4588 cd3d
00000290: e77b c83d da37 0e3e 8df8 23be 9775 3bbe
000002a0: 546d 383e 8405 a1bd 14db d83d 2cb0 173e
000002b0: 8efb fcbd 733d 953e fdde 913e 1336 443d
000002c0: 37ca 093e f8a2 c3be 20f8 013e 6e1f 94be
000002d0: 1d84 32be eb1f 6cbb 7ceb 34be 8360 01bd
000002e0: 133f 98bd 396d 0abe 2466 bcbd e034 013e
000002f0: 3a53 813e a9a6 843e 80dc 183d e203 23be
00000300: 8c71 883e 7d44 60be 5fc5 14bd ad8f 5dbd
00000310: 7a83 4a3c 6716 42bc 0b25 653e 493c 2ebe
00000320: 80ea 9c3d 6701 853d 8e2e 243c 0e90 32be
00000330: 507b 453c f69e 07be c5f8 8a3c 450c 393d
00000340: 9a91 8ebe 2682 8fbe 7bab 63be fbb2 e3bc
00000350: 7a83 0c3e 0a9c 213e 6612 a73e 3d66 023e
00000360: a0f6 2e3e 82d2 a2bc 3a1b 37be 830a b1bb
00000370: 0bb6 463e 4836 df3e 27e2 113e 924d 4cbe
00000380: 644d 823d 5a05 6ebd ed9b 93bd f463 763d
00000390: c87a 01be 9c9f 88bd 06a0 efbb dedb e2bd
000003a0: 355e f5bb e313 bcbd f73a 80bd 381f 39bd
000003b0: 3fa2 d83d 57d9 aa3e 1f7a af3e 15e5 593e
000003c0: 96d7 cabd 3d1f 87bc 128f 853b da01 583e
000003d0: 4f4a dd3e bfdb 153e 2d94 5e3e 62ee f4bd
000003e0: 2d76 a63d 84a4 ee3d 7e07 d63d 3c18 78bd
000003f0: 552e 603d 8b3e 533d 5ead a3bc 630c 803e

arith.constant9 f4 [64, 32]
-0.2640872 0.14650235 -0.14697573 -0.12524897 0.21471241 -0.18181224 0.0975217 0.23442674
0.054792818 -0.0410138 0.18896376 0.01603778 0.32968348 0.011663154 0.118309416 0.24118657
-0.0713068 -0.15096663 -0.07647596 0.03985297 0.104995124 -0.04013841 0.22636874 -0.14860827
-0.10419734 0.10065487 0.00511931 -0.050417196 -0.032333348 0.14645559 -0.15236428 -0.12960705
-0.015992789 -0.2879646 0.04858817 -0.1338621 -0.180371 0.15899447 0.026913082 0.2739891
-0.0004652143 0.13343588 -0.14602236 -0.054028362 -0.30732065 -0.18180539 -0.24546081 -0.30707034
0.03297675 0.14148532 -0.10127012 -0.20079637 -0.4362648 -0.008564615 -0.31946173 0.077629685
-0.053842794 -0.4220547 0.0028619077 0.36973134 -0.24000506 -0.256593 -0.15417606 -0.24463771
-0.2099032 -0.20702608 0.28677315 -0.016165456 -0.24680969 -0.06761514 0.11863612 0.110409625
-0.09281485 0.13600594 -0.22895066 -0.0704482 0.20186308 0.0025100356 0.0013336898 0.020971552
-0.0034889977 0.039292116 -0.013694226 -0.019957922 -0.18125439 -0.064847484 -0.28145713 0.122640565
0.32085097 -0.1498643 -0.14190331 0.022034463 0.026577555 0.12621167 0.04481759 -0.08841927
-0.032732584 -0.16208845 -0.0034224705 -0.09552789 0.13024941 0.09844689 -0.15405111 0.056505777
0.27908322 0.16080874 -0.0051229508 0.010308068 -0.20377767 0.0035965252 -0.09872723 0.19646007
-0.01967537 -0.25162995 -0.1313391 0.012761113 -0.008619082 -0.19577457 -0.11247449 -0.17024727
-0.1247355 -0.32436973 -0.20586373 0.3341916 -0.090480834 0.089972146 -0.20123105 -0.0926572
0.10949432 0.17212448 -0.018150218 -0.12494916 0.032671835 -0.13378228 0.13102329 -0.17186797
0.21715796 0.09723797 -0.03674913 -0.17880973 0.24503237 -0.018355282 0.22665432 0.1513064
-0.08889674 -0.17311653 0.089094 0.02049114 0.22216547 0.056315694 0.15624654 0.0155058475
0.22603823 0.13972405 0.091474794 -0.20434672 0.27842274 0.0017403032 0.26302785 -0.03003146
-0.16170423 0.18135886 -0.268785 -0.35788843 0.19295572 -0.27824485 -0.14527722 0.026362713
0.1410538 -0.17227939 0.33652693 -0.09078323 -0.16340394 0.15201773 -0.20503497 0.13125528
-0.122844025 0.077735916 0.27579615 0.40687793 0.05034608 -0.20340021 0.0328845 -0.16015457
-0.35035074 -0.02167753 -0.08069725 -0.004389438 -0.13064277 0.02935043 -0.22244228 -0.041449558
-0.073163085 -0.42301077 0.11088616 0.09247592 -0.0027950015 -0.0059453 0.16402522 -0.062591255
-0.034199122 0.20602658 -0.023692735 0.04197476 -0.22759442 -0.034074504 -0.009225604 0.08592449
-0.07027991 -0.22907053 -0.27610263 -0.3245807 0.14937687 -0.10312695 -0.0037416737 -0.08399412
0.40564477 -0.110364914 0.026009368 0.33855748 -0.0031090383 -0.0746906 -0.051828254 0.2722941
-0.19736019 -0.22004479 0.40379116 0.16634129 0.027493907 -0.06483017 -0.09647455 0.115173705
-0.09660386 0.16129056 0.024149567 0.18432419 -0.30603126 -0.09783787 -0.21921265 -0.05888955
0.29987043 0.1429477 0.0888633 -0.012656277 0.0003910527 -0.32561982 -0.28199837 0.030473787
0.16851403 -0.17003757 0.0056347814 0.32590908 -0.17874935 0.16160497 -0.11894638 -0.2271813
00000000: 7036 87be b604 163e ce80 16be 4441 00be
00000010: 92dd 5b3e fd2c 3abe 75b9 c73d 900d 703e
00000020: 6f6e 603d 16fe 27bd b77f 413e aa61 833c
00000030: 46cc a83e d016 3f3c 354c f23d 9df9 763e
00000040: 4d09 92bd ff96 1abe 6e9f 9cbd de3c 233d
00000050: af07 d73d 2c68 24bd 35cd 673e c42c 18be
00000060: 6a65 d5bd 2424 ce3d e3bf a73b 4382 4ebd
00000070: f96f 04bd 74f8 153e 6205 1cbe b6b7 04be
00000080: 4f03 83bc 1970 93be 6404 473d 2513 09be
00000090: 2db3 38be 72cf 223e d378 dc3c 4d48 8c3e
000000a0: 02e8 f3b9 6aa3 083e e386 15be d84c 5dbd
000000b0: 2259 9dbe 312b 3abe 145a 7bbe 5338 9dbe
000000c0: a112 073d 87e1 103e b566 cfbd 909d 4dbe
000000d0: 1a5e dfbe 9952 0cbc 7d90 a3be 50fc 9e3d
000000e0: 438a 5cbd 8e17 d8be d88e 3b3b 6d4d bd3e
000000f0: e3c3 75be 2860 83be 54e0 1dbe 4f82 7abe
00000100: ddf0 56be a5fe 53be eed3 923e 6b6d 84bc
00000110: aebb 7cbe ce79 8abd 7ef7 f23d 711e e23d
00000120: b615 bebd 2445 0b3e 0b72 6abe 2547 90bd
00000130: 32b5 4e3e 697f 243b 34cf ae3a 88cc ab3c
00000140: aba7 64bb c5f0 203d bf5d 60bc cc7e a3bc
00000150: c09a 39be c2ce 84bd 261b 90be fa2a fb3d
00000160: 9446 a43e 0776 19be 1a4f 11be 9e81 b43c
00000170: 2cb9 d93c a23d 013e a692 373d 2a15 b5bd
00000180: 9a12 06bd 84fa 25be 874b 60bb 20a4 c3bd
00000190: 1a60 053e 869e c93d 93bf 1dbe 9a72 673d
000001a0: ffe3 8e3e 0cab 243e 6dde a7bb 2ce3 283c
000001b0: 18ab 50be aeb3 6b3b 8131 cabd d42c 493e
000001c0: 3e2e a1bc a4d5 80be c27d 06be fd13 513c
000001d0: 0d37 0dbc 2179 48be 0759 e6bd 4d55 2ebe
000001e0: 5375 ffbd ca13 a6be f1cd 52be 291b ab3e
000001f0: 044e b9bd 5143 b83d 830f 4ebe 0fc3 bdbd
00000200: 8f3e e03d 6641 303e c4af 94bc 58e5 ffbd
00000210: e7d2 053d 39fe 08be f82a 063e 28fe 2fbe
00000220: a85e 5e3e b324 c73d 4186 16bd e619 37be
00000230: c4e9 7a3e d15d 96bc 1218 683e 11f0 1a3e
00000240: 7e0f b6bd 7645 31be ea76 b63d 09dd a73c
00000250: 587f 633e 49ab 663d 18ff 1f3e 3d0c 7e3c
00000260: 9176 673e d213 0f3e 2357 bb3d 4440 51be
00000270: 6d8d 8e3e e31a e43a 96ab 863e 8904 f6bc
00000280: cb95 25be 23b6 393e 309e 89be 273d b7be
00000290: 2f96 453e 1c76 8ebe 8dc3 14be 9ef6 d73c
000002a0: 6870 103e 026a 30be 424d ac3e 8fec b9bd
000002b0: 5d53 27be 89aa 1b3e b0f4 51be c967 063e
000002c0: a695 fbbd 0234 9f3d 2735 8d3e 4e52 d03e
000002d0: b137 4e3d 2548 50be e6b1 063d 8fff 23be
000002e0: 2c61 b3be 1395 b1bc 9a44 a5bd 46d5 8fbb
000002f0: 38c7 05be 5070 f03c e9c7 63be 03c7 29bd
00000300: 87d6 95bd de94 d8be 4818 e33d 0464 bd3d
00000310: 582c 37bb cbd0 c2bb 3af6 273e d82f 80bd
00000320: 6114 0cbd a2f8 523e 4417 c2bc baed 2b3d
00000330: 830e 69be b591 0bbd fd26 17bc 2ef9 af3d
00000340: eaee 8fbd 7791 6abe 535d 8dbe 712f a6be
00000350: 40f6 183e 3934 d3bd de36 75bb 1c05 acbd
00000360: acb0 cf3e 0007 e2bd 9911 d53c 6857 ad3e
00000370: 02c1 4bbb 63f7 98bd dd49 54bd 226a 8b3e
00000380: ca18 4abe 6c53 61be b7bd ce3e 5f55 2a3e
00000390: e73a e13c aec5 84bd 7394 c5bd 31e0 eb3d
000003a0: 3fd8 c5bd 5a29 253e 50d5 c53c 7bbf 3c3e
000003b0: 21b0 9cbe 395f c8bd 4879 60be 2b36 71bd
000003c0: 9e88 993e e260 123e f6fd b53d 465c 4fbc
000003d0: 3406 cd39 a4b7 a6be 1762 90be 2aa4 f93c
000003e0: f18e 2c3e 541e 2ebe f9a3 b83b 8edd a63e
000003f0: 120a 37be c67b 253e 299a f3bd 37a2 68be
